model_ml/model/model.pth (torch, 5236 bytes, 6 tensors)

fc1.weight f4 [8, 60]
0	0xbe07c748	-0.13259614
1	0x3cd4a83c	0.025959127
2	0xbd82da73	-0.06389322
3	0x3da41d0b	0.08013352
4	0x3e4b2d9a	0.19841614
5	0x3d66c99b	0.05634461
6	0x3e47b58c	0.19502848
7	0xbd94b944	-0.07261899
8	0xbe921808	-0.2853396
9	0x3f2e9427	0.6819481
10	0x3e12ae58	0.1432432
11	0x3e110ca1	0.14164974
12	0x3eef50f0	0.46741438
13	0xbeb47703	-0.3524705
14	0xbf1a2ec2	-0.60227597
15	0xbf3d3f95	-0.73925143
16	0x3f074513	0.52839774
17	0x3fd25683	1.6432651
18	0x3bdfa7d8	0.0068254285
19	0x3eed4c1d	0.46347132
20	0xbf71cb02	-0.9445039
21	0xbd8e5705	-0.069501914
22	0xbf02b475	-0.51056606
23	0x3ecf963f	0.40544316
24	0x3d66ac25	0.056316514
25	0xbe11e843	-0.14248757
26	0xbecb525f	-0.39711282
27	0x3f14681f	0.57971376
28	0x3dfeec76	0.12447445
29	0x3dc98e05	0.09841541
30	0xbe5771a1	-0.2103944
31	0x3d9e45b1	0.07728136
32	0x3f8463a8	1.0342913
33	0xbc9a7380	-0.018853903
34	0xbdbdda3f	-0.09270143
35	0xb9d09358	-0.0003978263
36	0xbd767323	-0.060168397
37	0x3db62914	0.08894554
38	0x3bc59b9b	0.0060305125
39	0xbe7f038a	-0.24903694
40	0x3d2dd8d1	0.0424431
41	0x3ebf5fde	0.37377828
42	0x3f14c286	0.5810932
43	0x3f16a8e5	0.5885146
44	0x3e97cbe2	0.29647738
45	0x3e63a4cd	0.22230835
46	0xbd6e05fe	-0.058111183
47	0x3f1556bd	0.5833548
48	0xbf4240e8	-0.7588029
49	0xbd04430d	-0.032290507
50	0xbead8479	-0.3389013
51	0xbcd43fa2	-0.025909249
52	0x3e90ffda	0.283202
53	0xbe188068	-0.14892733
54	0xbea61839	-0.32440355
55	0xbd8215ab	-0.06351789
56	0x3ef452cd	0.47719422
57	0x3e291a48	0.16513932
58	0xbdcbc3e1	-0.0994947
59	0x3dcc4765	0.09974555
60	0x3e50a458	0.20375192
61	0x3e0c4464	0.13697964
62	0x3e8927e2	0.2678824
63	0xbe21f0a5	-0.15814455
64	0x3e8801a3	0.2656375
65	0xbb6f2195	-0.0036488522
66	0x3df9f609	0.122051306
67	0xbd546bf5	-0.05186077
68	0x3ef8a862	0.48565966
69	0xbf16c917	-0.5890059
70	0x3e4c4b4a	0.19950595
71	0xbef9cd7f	-0.48789594
72	0xbdb01da9	-0.08599407
73	0x3f281d35	0.65669566
74	0x3ed5879c	0.41705024
75	0xbeef7338	-0.46767592
76	0x3f1eba0f	0.6200265
77	0xbec54750	-0.3853097
78	0xbeca407e	-0.3950233
79	0xbef57bd8	-0.47946048
80	0x3f871796	1.0554073
81	0xbeb20b68	-0.34774327
82	0x3e42c1b2	0.19019201
83	0xbeebc3c9	-0.4604781
84	0xbdfb1831	-0.122604735
85	0x3e321fdf	0.1739497
86	0x3f10ad0e	0.5651406
87	0xbd3c772f	-0.0460121
88	0x3e0f229c	0.13978046
89	0xbf7c787f	-0.9862136
90	0x3f0ef2bb	0.5583913
91	0xbd0c8bbd	-0.034312952
92	0x3e8f2467	0.2795746
93	0x3d52423a	0.05133269
94	0xbe6b01f8	-0.2294997
95	0x3e195c2b	0.14976566
96	0x3e52764e	0.20552942
97	0xbe5db02a	-0.21649233
98	0xbce81315	-0.028329412
99	0x3eeae1bb	0.45875344
100	0x3dcab827	0.098984055
101	0x3ef0ae2c	0.47007883
102	0xbec19b18	-0.3781364
103	0xbb0824cf	-0.0020773893
104	0x3f2e8f54	0.6818745
105	0x3e8550d3	0.26038226
106	0xbe95a363	-0.29226217
107	0xbeb03348	-0.34414124
108	0x3e7ddc28	0.24791014
109	0x3f617cc2	0.8808099
110	0x3f23e471	0.6402045
111	0xbe13bf78	-0.14428508
112	0x3ec58187	0.38575384
113	0x3f035297	0.512979
114	0x3e8d274b	0.2756904
115	0x3f269da4	0.6508429
116	0x3f284e78	0.65744734
117	0x3e19202d	0.1495368
118	0xbe5ecf37	-0.21758734
119	0xbe1948d0	-0.14969182
120	0x3e24cfeb	0.1609494
121	0x3f2c24c9	0.6724363
122	0x3ecb1587	0.39664862
123	0x3eb7f7ff	0.35931394
124	0xbe822c8c	-0.25424612
125	0xbd8f4162	-0.06994893
126	0x3d06e958	0.032937378
127	0xbda3543e	-0.07975052
128	0x3e407261	0.18793632
129	0xbf03d7b4	-0.5150101
130	0x3dc448a2	0.09584166
131	0x3eec2327	0.4612057
132	0x3ce47d73	0.02789185
133	0x3e3e5e81	0.18590738
134	0xbf332e18	-0.6999221
135	0x3e810837	0.2520158
136	0xbf1f2181	-0.621605
137	0xbe08436d	-0.13306971
138	0xbf1f892a	-0.6231867
139	0xbec8629c	-0.39137733
140	0x3f922e15	1.1420313
141	0xbf05d3d3	-0.52276343
142	0xbb0e43b2	-0.002170783
143	0xbec2f65c	-0.38078582
144	0xbe9df78a	-0.3085292
145	0xbcb3e8e2	-0.021961633
146	0xbe0880ad	-0.13330336
147	0x3fdf6d72	1.7455275
148	0x3e02be6d	0.12767954
149	0x3f96612d	1.1748406
150	0x3f348750	0.7051897
151	0xbd0b2367	-0.03396931
152	0xbd44a08a	-0.048004664
153	0x3e6955cc	0.22786635
154	0x3e54b9b7	0.2077397
155	0xbd5f07a7	-0.054450657
156	0x3e9e23c9	0.30886677
157	0xbe12b632	-0.14327314
158	0xbdd6edfb	-0.1049461
159	0x3d9ce232	0.07660331
160	0xbd60e629	-0.054906998
161	0x3e24b7a9	0.16085686
162	0x3f50ed50	0.8161211
163	0x3e82b6e7	0.25530168
164	0xbf53d61a	-0.8274857
165	0x3e040d90	0.12895799
166	0xbdfc9718	-0.12333506
167	0xbef8a977	-0.4856679
168	0x3dde7a3f	0.1086316
169	0x3ed17262	0.4090758
170	0x3c958482	0.018251661
171	0x3d7134ae	0.05888813
172	0x3dc45833	0.09587135
173	0x3dea391f	0.11436676
174	0xbe4eb17f	-0.20184897
175	0xbf6ff7cc	-0.93737483
176	0xbcce13e2	-0.025155965
177	0xbe0eafd7	-0.13934265
178	0x3d0715c8	0.032979757
179	0xbe9ef1a5	-0.31043735
180	0x3e45b565	0.19307478
181	0xbdcae9c0	-0.099078655
182	0x3e42c0b1	0.19018818
183	0x3e4be24d	0.19910546
184	0xbd28330e	-0.041064315
185	0xbd228263	-0.039675128
186	0x3cc6dca7	0.024275137
187	0xbdef179e	-0.116744265
188	0xbd685f8f	-0.056731757
189	0x3e63b3ba	0.22236529
190	0x3ee7d24f	0.4527764
191	0x3e1973b1	0.14985539
192	0x3dfe6091	0.12420762
193	0xbda7eef6	-0.08199875
194	0xbe3b7684	-0.18306929
195	0x3e6578e4	0.22409397
196	0xbe570970	-0.20999694
197	0x3ecb0bff	0.3965759
198	0xbd732a79	-0.059366677
199	0x3e5f56dd	0.2181048
200	0xbeb896bd	-0.36052504
201	0xbde3af86	-0.11117463
202	0x3c8e8bbb	0.017400613
203	0x3dbd3079	0.09237761
204	0x3e65d99a	0.2244629
205	0x3ccaef90	0.024772435
206	0xbeaa06f2	-0.33208424
207	0x3df635c3	0.12021973
208	0x3ec89f16	0.39183873
209	0x3f01f780	0.5076828
210	0x3ef94f24	0.48693192
211	0xbbaa6598	-0.005200099
212	0x3d6df5da	0.05809579
213	0x3e0392d5	0.1284898
214	0x3e797a5f	0.24363087
215	0xbd8fc0a2	-0.07019164
216	0x3e095ba2	0.13413861
217	0x3d9b7518	0.07590693
218	0x3e0f7ffe	0.14013669
219	0xbdefd232	-0.117100134
220	0x3e7ffa3a	0.24997798
221	0x3e549a1f	0.20761918
222	0x3edff0ef	0.43738505
223	0xbdca7ed3	-0.09887471
224	0xbeb5425d	-0.35402194
225	0xbe05db5a	-0.13071957
226	0x3e2c2b9d	0.16813512
227	0x3dfe31d9	0.124118514
228	0xbd50de48	-0.050993234
229	0xbedd4d46	-0.43223017
230	0xbe4e482c	-0.20144719
231	0xbcd200c7	-0.025635136
232	0x3e83fb04	0.25777447
233	0xbd83bf71	-0.06432999
234	0xbd8a4f64	-0.06753424
235	0xbe71e4ce	-0.23622438
236	0xbf0ae135	-0.5424989
237	0x3d4d78a4	0.05016388
238	0x3deb1ec8	0.114804804
239	0x3e3a33bd	0.18183799
240	0x3d51beb1	0.051207248
241	0x3e1a77b4	0.15084726
242	0xbdfcf8f8	-0.123521745
243	0x3ca8f76a	0.020625789
244	0xbdfc6107	-0.12323194
245	0x3e49b5ae	0.19698212
246	0x3d306886	0.04306843
247	0xbd9ebf59	-0.077513404
248	0x3e2cf473	0.16890125
249	0x3d054480	0.03253603
250	0xbe26e78c	-0.16299266
251	0x3d90977a	0.07060142
252	0x3d33064e	0.043707184
253	0x3d437bd4	0.047725514
254	0x3f05555c	0.52083373
255	0x3f9727cc	1.180902

fc1.bias f4 [8]
0	0x3fda0625	1.7033125
1	0x3f981f76	1.1884601
2	0x3f735de2	0.9506513
3	0x3f120d7a	0.57051814
4	0x3f295ad8	0.6615424
5	0x3ef92817	0.486634
6	0x3d6059f4	0.054773286
7	0x3fd4497d	1.6584927

fc2.weight f4 [8, 8]
0	0x3ec30cd0	0.38095713
1	0x3e90e983	0.28303155
2	0xc0103b1c	-2.2536077
3	0x3eaae705	0.3337938
4	0x3f5a7836	0.8533968
5	0x3d64dcf3	0.055874776
6	0x3e2a5156	0.1663259
7	0x401d1512	2.454411
8	0xbf9924c3	-1.1964344
9	0xbf17906f	-0.59204763
10	0x3f934a9f	1.1507148
11	0x3eaadc95	0.33371416
12	0x3fcdb7cc	1.6071715
13	0x3e282093	0.16418676
14	0x3df21900	0.118211746
15	0x4028e00d	2.638675
16	0x3fb4f657	1.4137677
17	0xbef61300	-0.4806137
18	0x3fe392b0	1.777914
19	0x3fca4e1e	1.580509
20	0xbf142e9f	-0.5788364
21	0x3f65ca82	0.8976213
22	0x3d415cc5	0.047207613
23	0xbf2b14e7	-0.6682877
24	0x3fe88976	1.816695
25	0xbcb07dd6	-0.021544378
26	0x3ed52b1f	0.4163446
27	0x3e19ff05	0.15038688
28	0xbec84d66	-0.3912155
29	0xbf416bf1	-0.7555533
30	0x3e6a40ab	0.22876231
31	0x3ed3bf1f	0.4135675
32	0x3c4da820	0.012552291
33	0xbd441e50	-0.04788047
34	0xbe0d676a	-0.1380898
35	0xbe252fae	-0.1613147
36	0x3e47e8da	0.1952242
37	0xbd84d360	-0.06485629
38	0xbe51c734	-0.20486146
39	0xbe4e4519	-0.20143546
40	0xbf0f5058	-0.5598197
41	0xbcf3adff	-0.029746054
42	0x3fe35d35	1.776282
43	0xbddf4643	-0.10902073
44	0xbe07d85f	-0.13266133
45	0x3ede677c	0.43438327
46	0xbe9a1c67	-0.30099794
47	0x3f3c6b10	0.73600864
48	0x402163c2	2.5217137
49	0xbf16e390	-0.5894098
50	0xbef949c1	-0.48689082
51	0x3d0cc48f	0.03436714
52	0xbc4b03ba	-0.012391025
53	0x3f82d517	1.022128
54	0xbef32f35	-0.47496954
55	0x3f5d610f	0.86476225
56	0xbe3780fe	-0.179203
57	0x404faa0e	3.2447543
58	0x3f3eb0f4	0.7448876
59	0xbf3aa710	-0.7291117
60	0x3ea108fc	0.31452167
61	0x3e3818e2	0.17978242
62	0x3edada7a	0.4274481
63	0xbf822607	-1.0167855

fc2.bias f4 [8]
0	0x3fa0c2dc	1.2559466
1	0x3e9a149e	0.30093855
2	0x3f4b4adc	0.794111
3	0xbdcf6dff	-0.10128402
4	0xbe691063	-0.22760157
5	0x3f2cc60f	0.67489713
6	0x3f08dd39	0.5346256
7	0x3fc37c0b	1.527223

fc3.weight f4 [19, 8]
0	0x3f601a4e	0.8754014
1	0xbf5976b5	-0.8494676
2	0x3cbcb738	0.023036584
3	0x3f19202b	0.5981471
4	0x3e9c72c3	0.30556306
5	0xbf7ed822	-0.9954854
6	0x3f85ada0	1.0443611
7	0xbfc7ddea	-1.5614598
8	0x3f056c5d	0.52118474
9	0xbe4f7158	-0.20258081
10	0x3f88fd0c	1.0702224
11	0x3dd5ee13	0.104458
12	0xbeae7edb	-0.34081158
13	0xbd4af3eb	-0.049549025
14	0x3d21be15	0.039487917
15	0x3c83d4c7	0.016092671
16	0xbe85ba5b	-0.2611874
17	0x3f7598aa	0.9593607
18	0x3d2b1a25	0.04177298
19	0x3e8fc7ec	0.28082216
20	0xbea2331e	-0.31679624
21	0x3f3e75ed	0.7439869
22	0xbe868ef8	-0.26280951
23	0xbe53ea0f	-0.20694755
24	0x3f509d60	0.81490135
25	0x3f3c15af	0.73470587
26	0xbf6c799e	-0.92373073
27	0xbf03e987	-0.5152821
28	0x3df80aac	0.121114105
29	0xbd313d28	-0.043271214
30	0xbf349ae1	-0.70548826
31	0x3eef0ac7	0.4668791
32	0x3f8ee43a	1.1163399
33	0x3fb4a72b	1.4113516
34	0xbf9f12f1	-1.2427655
35	0xbe773715	-0.24142106
36	0xbd76b128	-0.060227543
37	0xbf42062c	-0.7579067
38	0xbec35113	-0.38147792
39	0xbf906a86	-1.1282508
40	0x3fca6574	1.5812211
41	0x3e1a3b50	0.15061688
42	0xbf72fdf7	-0.9491877
43	0xbe71b853	-0.2360547
44	0x3e52b4de	0.20576808
45	0xbed1a512	-0.4094625
46	0x3efdfd7c	0.49607456
47	0xbf2f8e39	-0.6857639
48	0x3ddcbe5c	0.10778496
49	0x3fdf7337	1.7457036
50	0xbeee03aa	-0.4648717
51	0xbee35be4	-0.44406044
52	0xbe62e7a6	-0.2215868
53	0x3e8bf6d3	0.2733675
54	0xbf697a93	-0.9120266
55	0xbf54eb30	-0.8317137
56	0x3e724ca5	0.2366205
57	0xbda3466b	-0.079724155
58	0xbee5386c	-0.4476961
59	0x3eb5c0e6	0.35498732
60	0xbd44ab78	-0.048015088
61	0xbe7feae3	-0.24991946
62	0xbe5df5ee	-0.21675846
63	0x3f9b3f6f	1.2128733
64	0xbfac9070	-1.3481579
65	0xbdbf9186	-0.09353928
66	0x3f0dede5	0.55441123
67	0x3f964f9a	1.1743042
68	0xbdf85bae	-0.121268615
69	0x3f2f9b82	0.6859666
70	0x3e48cc66	0.19609222
71	0xbe7888c6	-0.24270925
72	0xbf35186d	-0.70740396
73	0xbf4bdf1f	-0.7963733
74	0x3fc0b86c	1.5056281
75	0x3e8547be	0.26031297
76	0xbe65c8e8	-0.22439921
77	0x3e6acacc	0.22928923
78	0xbfb7a6d7	-1.434779
79	0x3f24309f	0.6413669
80	0xbf22a9e3	-0.63540477
81	0xbfa366af	-1.2765712
82	0x3e8eb5b7	0.27873012
83	0x3eac130e	0.33608288
84	0xbdb49a10	-0.088184476
85	0xbe9249b9	-0.2857187
86	0x3eca4d4f	0.39512107
87	0x3f922d21	1.1420022
88	0xbf8b22de	-1.0870016
89	0xbeb63252	-0.35585266
90	0x3fad678c	1.3547225
91	0x3dcf09fe	0.10109328
92	0x3e82624f	0.25465629
93	0xbf19219c	-0.5981691
94	0x3f53adb6	0.82686937
95	0xbf311803	-0.69177264
96	0xbf514ff9	-0.81762654
97	0xbdb21eba	-0.08697267
98	0x3eb3077a	0.34966642
99	0xbe7d81cf	-0.2475655
100	0x3e46827e	0.19385716
101	0x3f20f5c8	0.6287503
102	0x3e7260d4	0.2366975
103	0x3f489cbe	0.7836417
104	0x3fb97318	1.4488249
105	0xbf815c25	-1.0106245
106	0xbebc0e72	-0.3672977
107	0x3e996d53	0.2996622
108	0xbe8639fe	-0.2621612
109	0xbf6d2fbe	-0.92650974
110	0xba77901c	-0.0009443776
111	0x3f3d7348	0.7400403
112	0x3f704c8c	0.938668
113	0x3dc58bd0	0.09645808
114	0x3e981baa	0.29708606
115	0xbf262244	-0.64896035
116	0x3ea462cb	0.32106623
117	0x3e973bd1	0.29537824
118	0x3f4e20aa	0.8051859
119	0xbf6a5702	-0.91539013
120	0xbef98fc7	-0.48742506
121	0x3f189c0b	0.596131
122	0xbde59120	-0.11209321
123	0xbefd057d	-0.4941825
124	0xbe695965	-0.22788008
125	0x3ee014a8	0.4376576
126	0xbf9e4da7	-1.2367448
127	0x3f5df962	0.8670865
128	0xbf7cd7ce	-0.9876679
129	0xbee2ca30	-0.44294882
130	0xbea4869c	-0.3213395
131	0xbf64af8e	-0.89330375
132	0x3dc03640	0.09385347
133	0x3b0d798c	0.002158734
134	0xbf49c415	-0.7881482
135	0x3fd36df3	1.6517929
136	0xbef50426	-0.47854728
137	0x3f632ec0	0.8874321
138	0x3f5658b1	0.8372908
139	0x3e8f759a	0.2801941
140	0x3c9862a0	0.018601716
141	0x3ef7e14c	0.48414075
142	0x3d28f4ee	0.04124921
143	0xbf9c4099	-1.2207214
144	0x3b343f5c	0.0027503585
145	0xbf836e54	-1.0268044
146	0x3dffe149	0.124941416
147	0x3f1d5786	0.61461675
148	0xbe95717e	-0.2918815
149	0xbef5c22a	-0.47999698
150	0x3f862737	1.0480717
151	0x3d3acf54	0.04560788

fc3.bias f4 [19]
0	0x3d1dc98f	0.0385223
1	0x3eb83848	0.3598044
2	0xbe89a4d9	-0.2688358
3	0x3d9fa0c9	0.07794339
4	0xbe8ee420	-0.2790842
5	0x3eae5ff8	0.34057593
6	0xbdc17824	-0.09446743
7	0xbe8826fc	-0.26592243
8	0x3db657a8	0.08903438
9	0xbe224460	-0.15846395
10	0x3e8396a0	0.25700855
11	0xbeae6e0e	-0.3406834
12	0xbe802921	-0.2503138
13	0x3f56f4bf	0.839672
14	0x3d8a1135	0.06741563
15	0xbc589fed	-0.013221723
16	0xbe54ac74	-0.2076891
17	0x3e141dfa	0.1446456
18	0xbd267fa1	-0.04064906
