model_ml/model/model.pth (torch, 5428 bytes, 6 tensors)

fc1.weight f4 [8, 64]
-0.10376769 0.53303653 -0.21145026 -0.28608045 0.31359512 -0.011354617 0.29063633 0.04394061
0.16384871 0.387878 0.075417936 -0.25399196 0.7890057 0.39968204 0.07258632 0.06164911
0.23763256 -0.5341818 0.96281576 0.17145206 0.4118176 1.4582505 0.18805346 -0.08209519
0.23509881 0.06430782 -0.027537629 0.23161209 -0.021672739 -0.13284591 -0.71396375 -0.35942075
0.14006902 0.9813455 0.07355168 0.0017626648 -0.17247641 0.07293521 -0.16152582 -0.21427421
0.08005289 0.16708635 -0.011716784 -0.35858905 1.1202687 0.0056529604 0.017591324 -0.5856501
-0.09055773 0.13357534 -0.10734049 0.502898 0.49915034 0.32306498 0.16041975 0.0032256385
0.29268217 0.14716057 0.18202016 -0.5608373 -0.7028446 0.39975664 0.090055674 0.100376464
-0.10459396 0.28282744 -0.15965879 -0.19871043 0.2347086 -0.069323465 -0.10340464 0.10269113
-0.0061273454 0.19771633 -0.3907166 0.13947178 -0.9153613 -0.13260835 -0.25047332 0.04951878
0.12867688 0.40614453 -0.88614637 -0.37775308 -0.24385422 0.1427755 -0.37558052 0.3886393
-0.09297717 0.13766083 0.1610765 -0.19102661 0.08061119 0.13884489 0.5474735 -0.27538157
-0.041220687 -0.19656399 -0.2563426 -0.086457126 0.45284507 0.0911768 -0.09164918 1.1071695
0.13503891 -0.12723762 0.021478567 0.59620845 -0.63802165 -0.39198092 0.19212899 0.863169
0.38090372 -0.065849066 1.1085646 -0.08362523 0.71101606 0.17086631 -0.22979002 0.061812792
-0.051916614 -0.25067723 0.060853064 0.92259574 -0.6374631 0.06962906 0.10455622 0.029127246
0.37415275 0.061324682 0.40797815 0.07268931 0.08458943 0.024497243 0.25172904 0.11154087
0.03331091 -0.08884497 0.09486145 -0.26675102 0.048631728 0.18871531 -0.019707816 -0.11416163
0.52082384 -0.03877675 0.6096708 0.9106292 -0.11889384 -0.74659646 0.8196598 -0.14812042
-0.11241395 -0.23959331 -0.10630738 0.00043917896 0.3915608 -0.3295071 0.05400205 0.539382
0.1646439 0.7661541 0.15288825 0.14946094 -0.04212998 -0.12347566 0.31598604 -0.34342363
-0.028121715 0.002277225 -0.00065126386 0.08457849 0.13669573 0.21226224 0.089009814 -0.46904558
-0.22135015 0.28515422 -0.13580543 -0.1051918 0.07962918 0.46201894 -0.13566591 0.030901212
0.14561173 0.07848267 -0.15577549 -0.4928111 0.75202626 0.04922145 -0.08013183 -0.25105444
0.33823234 -0.112974994 0.3810676 0.051908266 -0.062096775 0.030094862 0.14963141 0.01694073
0.026994828 -0.45781848 -0.26876622 -0.3871281 -0.3276155 -0.0025058796 0.13066287 0.22211409
-0.6471122 0.7971339 -0.13955638 0.18089432 -0.39191574 -0.23122402 0.13386932 -0.19173694
-0.3710523 -0.36246163 0.0120669 0.052900635 1.2887858 -0.5706207 0.24821226 0.6885368
-0.12397761 0.21504278 -0.060670026 0.078952566 -0.02298127 0.17430495 0.18785633 -0.21316549
-4.800385e-05 0.19856295 -0.03612687 0.9731193 0.20764253 -0.3901182 -0.6554326 0.54553515
0.3797997 0.13267587 -0.40458658 -0.42035362 -0.10832554 0.5189322 0.1261381 0.13882644
0.60144556 0.20491457 0.028288439 0.31718537 0.83266205 0.036583193 -0.09647163 -0.28885978
00000000: 2884 d4bd 1575 083f 6b86 58be 2379 92be
00000010: 8a8f a03e b708 3abc 49ce 943e 12fb 333d
00000020: f5c7 273e f297 c63e b874 9a3d 3c0b 82be
00000030: 47fc 493f 20a3 cc3e 23a8 943d c783 7c3d
00000040: f355 733e 23c0 08bf 187b 763f 2191 2f3e
00000050: c2d9 d23e f4a7 ba3f 1691 403e 8621 a8bd
00000060: bebd 703e d1b3 833d 9896 e1bc b82b 6d3e
00000070: 078b b1bc c208 08be 54c6 36bf ff05 b8be
00000080: 416e 0f3e 7539 7b3f 43a2 963d 3709 e73a
00000090: a89d 30be 0e5f 953d 0667 25be b36a 5bbe
000000a0: c5f2 a33d af18 2b3e c1f7 3fbc fc98 b7be
000000b0: f764 8f3f 783c b93b ae1b 903c 2aed 15bf
000000c0: 5576 b9bd f9c7 083e 55d5 dbbd ecbd 003f
000000d0: a290 ff3e c668 a53e 1345 243e 3c65 533b
000000e0: 70da 953e 43b1 163e 7e63 3a3e 0993 0fbf
000000f0: a0ed 33bf e7ac cc3e 1c6f b83d 2d92 cd3d
00000100: 5c35 d6bd c2ce 903e 987d 23be bf7a 4bbe
00000110: 7457 703e 76f9 8dbd d0c5 d3bd ba4f d23d
00000120: e6c7 c8bb 2676 4a3e 020c c8be b1d1 0e3e
00000130: 1e55 6abf 7cca 07be 0a3e 80be 34d4 4a3d
00000140: dfc3 033e 2df2 cf3e 7dda 62bf da68 c1be
00000150: ecb4 79be be33 123e 174c c0be bbfb c63e
00000160: d16a bebd f6f6 0c3e 3df1 243e 7b9c 43be
00000170: 7b17 a53d 5b2d 0e3e 3927 0c3f d0fe 8cbe
00000180: 06d7 28bd 1248 49be 563f 83be 6f10 b1bd
00000190: 4fdb e73e e7ba ba3d 91b2 bbbd bbb7 8d3f
000001a0: a447 0a3e 944a 02be d2f3 af3c 1ea1 183f
000001b0: 6355 23bf b9b1 c8be 76bd 443e a5f8 5c3f
000001c0: d005 c33e e0db 86bd 72e5 8d3f b443 abbd
000001d0: 2605 363f 94f7 2e3e 134e 6bbe 692f 7d3d
000001e0: 84a6 54bd c458 80be 1041 793d 3c2f 6c3f
000001f0: c830 23bf ae99 8e3d 9221 d63d 439c ee3c
00000200: f390 bf3e 972f 7b3d 83e2 d03e 22de 943d
00000210: 393d ad3d 71ae c83c a1e2 803e 8a6f e43d
00000220: 0571 083d 5af4 b5bd b846 c23d 9793 88be
00000230: 1032 473d 963e 413e 4972 a1bc 93cd e9bd
00000240: b654 053f 5fd4 1ebd 6313 1c3f ff1e 693f
00000250: 9d7e f3bd f220 3fbf 3ad5 513f e1ac 17be
00000260: 4939 e6bd f357 75be afb7 d9bd 9a41 e639
00000270: a87a c83e 28b5 a8be 4131 5d3d f014 0a3f
00000280: 6998 283e ad22 443f bd8e 1c3e 4a0c 193e
00000290: 7c90 2cbd cfe0 fcbd ecc8 a13e 39d5 afbe
000002a0: 835f e6bc 7f3d 153b 94b9 2aba 7d37 ad3d
000002b0: f7f9 0b3e 465b 593e c74a b63d be26 f0be
000002c0: 9da9 62be bcff 913e 9410 0bbe cc6e d7bd
000002d0: a014 a33d bf8d ec3e 01ec 0abe 8a24 fd3c
000002e0: 3e1b 153e 86bb a03d 9c83 1fbe bd51 fcbe
000002f0: cb84 403f 6e9c 493d 281c a4bd 358a 80be
00000300: ca2c ad3e 6f5f e7bd 4b1b c33e c39d 543d
00000310: 3059 7ebd 8089 f63c fa38 193e 49c7 8a3c
00000320: 4224 dd3c 2f67 eabe ba9b 89be a835 c6be
00000330: 38bd a7be af39 24bb 7dcc 053e e071 633e
00000340: 25a9 25bf f810 4c3f dee7 0ebe 5c3c 393e
00000350: 2ea9 c8be fdc5 6cbe 0a15 093e b056 44be
00000360: 91fa bdbe 9294 b9be 3fb4 453c 56ae 583d
00000370: eff6 a43f 3314 12bf 5b2b 7e3e f343 303f
00000380: f9e7 fdbd 2d34 5c3e 2281 78bd e2b1 a13d
00000390: 3743 bcbc ff7c 323e 695d 403e 0e48 5abe
000003a0: be57 49b8 1654 4b3e c5f9 13bd 591e 793f
000003b0: 3ea0 543e 93bd c7be 6eca 27bf 31a8 0b3f
000003c0: 1b75 c23e 2fdc 073e f925 cfbe 9738 d7be
000003d0: c8d9 ddbd bed8 043f 592a 013e 8528 0e3e
000003e0: 56f8 193f 20d5 513e 28bd e73c 1f66 a23e
000003f0: 5729 553f 42d8 153d eb92 c5bd 6ee5 93be

fc1.bias f4 [8]
0.9477136 1.6973203 0.5962544 1.0248501 0.20475791 0.71589226 0.9912309 0.7988166
00000000: 5c9d 723f cb41 d93f 21a4 183f 4a2e 833f
00000010: 0fac 513e b744 373f 4fc1 7d3f 3f7f 4c3f

fc2.weight f4 [8, 8]
-0.05416864 1.728686 -0.77684766 -1.1124148 1.2052268 -0.72875094 1.236564 2.1929655
-1.2609324 2.4666011 -0.007619278 2.5436733 -0.16448493 -0.3736505 0.16571882 -0.45757994
-0.058906987 -0.103701904 0.5596452 -0.085884154 -0.056608725 1.2020445 -0.46599558 -0.53228545
-0.4026699 0.6827119 0.23311986 -0.20939668 0.030471748 1.017112 -0.032003745 0.14195101
0.44416425 0.42888147 0.747512 -0.46960658 -0.3104261 2.5805397 -1.4256686 2.3754163
3.0045726 0.21257964 -0.19490966 -0.2321688 -0.4410692 -0.6659642 0.33282644 -0.49073118
-0.047461867 0.095048845 0.073648036 -0.0036152303 -0.03135404 0.0327017 -0.13044403 -0.11827788
0.70153004 -1.7661884 2.2401757 1.4301637 -0.20172161 1.3433869 1.7161486 0.53973895
00000000: f0df 5dbd 9545 dd3f 7ddf 46bf 9c63 8ebf
00000010: df44 9a3f 6c8f 3abf bb47 9e3f 8c59 0c40
00000020: 3c66 a1bf cbdc 1d40 23ab f9bb 8bcb 2240
00000030: bd6e 28be 1e4f bfbe 32b2 293e eb47 eabe
00000040: 7448 71bd aa61 d4bd e844 0f3f 08e4 afbd
00000050: 8dde 67bd 98dc 993f f996 eebe dc43 08bf
00000060: c02a cebe 35c6 2e3f f9b6 6e3e 156c 56be
00000070: e39f f93c ba30 823f 5c16 03bd 9b5b 113e
00000080: 7f69 e33e 5a96 db3e f25c 3f3f 4670 f0be
00000090: 2bf0 9ebe 9027 2540 4f7c b6bf d206 1840
000000a0: eb4a 4040 7aae 593e 6696 47be a8bd 6dbe
000000b0: d2d3 e1be a17c 2abf 3a68 aa3e 1e41 fbbe
000000c0: 6067 42bd f8a8 c23d c8d4 963d 80ed 6cbb
000000d0: 186d 00bd 38f2 053d 1f93 05be ac3b f2bd
000000e0: 7997 333f 7612 e2bf 0a5f 0f40 9b0f b73f
000000f0: 1c90 4ebe 1af4 ab3f c2aa db3f 552c 0a3f

fc2.bias f4 [8]
0.73014736 0.8255298 -0.19747917 -0.40250316 -0.17533632 0.6180341 -0.29722998 0.39053416
00000000: f0ea 3a3f ec55 533f fb37 4abe e514 cebe
00000010: 5d8b 33be 7c37 1e3f 872e 98be 18f4 c73e

fc3.weight f4 [21, 8]
-0.40866452 -1.4085294 -0.05700741 -0.12782742 0.86668485 0.76042664 0.26951727 0.50941825
1.010684 -0.8046885 -0.049572706 -0.1834117 0.23928025 -0.52007884 -0.2858687 0.7235505
1.5434121 0.180066 0.31828055 -0.06048533 -1.011756 -0.3718888 -0.16304201 -1.061653
0.3578122 -1.1070526 -0.17579834 0.172996 -0.48948067 1.1844183 0.14216372 0.3297242
0.21750301 0.20845665 -0.23051317 -0.254833 1.232843 0.476709 0.056602627 -0.56501704
-0.60703063 -0.47660667 0.7715277 0.7861993 1.5885336 -0.047166206 0.21791968 0.18299687
-1.1342399 0.5938639 0.77942824 0.46215174 1.1079187 -0.47059134 0.19606122 0.4547001
0.52152526 -1.0428119 -0.9154004 0.15086234 1.7404823 -0.30878988 -0.19973484 -0.23836227
0.41024604 1.0968553 0.20268597 -0.24879019 -0.26134646 0.45192242 -0.16474727 -0.54028344
-0.40336204 1.3947984 -0.21655464 -0.24313533 -0.8099601 0.015577541 0.11702865 0.15871406
-1.5186688 1.1432242 0.1266643 -0.43417016 -0.6095046 -1.0158429 -0.25357467 1.0164058
-0.22545472 0.23312135 -0.2806901 0.18840295 -0.22291195 0.21944635 0.026468128 1.0360098
-0.8846113 -1.158892 -0.30817714 0.10393062 -0.9952351 1.0203302 -0.19044787 1.0864255
1.1780659 -0.36856115 -0.1187275 -0.16007623 -0.38692245 0.6855363 0.3528594 -0.5983481
0.15940677 1.7723098 -0.12737453 0.3691625 -0.6730662 -0.64463705 0.28600076 -1.5820965
0.9100322 0.4909259 0.12705496 -0.3288602 -0.607688 -0.3282177 -0.18740799 0.43343592
0.96832216 0.1574525 0.2698401 0.6285363 0.79368186 -0.3491027 -0.28044307 -1.5036283
0.019616695 0.433255 -0.11486617 -0.08578891 -0.69788045 1.4013942 0.31393495 -1.4405495
-0.6183404 0.20844468 0.063547015 -0.16767396 -0.85219944 1.2459329 -0.24232006 0.35014847
0.2729129 0.810049 -0.191341 0.38880068 0.6179908 -0.88482195 -0.04286915 -0.08042277
-1.1819587 -0.31331635 -0.27557284 0.11067424 -0.34723124 -0.467769 -0.027015924 1.6789589
00000000: 7a3c d1be b14a b4bf 9a80 69bd 31e5 02be
00000010: 0fdf 5d3f 52ab 423f 2bfe 893e 3c69 023f
00000020: 185e 813f 1100 4ebf c00c 4bbd 47d0 3bbe
00000030: e205 753e e323 05bf 625d 92be 9b3a 393f
00000040: 878e c53f 3963 383e abf5 a23e 77bf 77bd
00000050: 3881 81bf 3568 bebe 7cf4 26be 3fe4 87bf
00000060: 2933 b73e e6b3 8dbf 7b04 34be dd25 313e
00000070: 369d fabe 059b 973f 5e93 113e 9cd1 a83e
00000080: 1cb9 5e3e a975 553e a50b 6cbe 7979 82be
00000090: cdcd 9d3f 3413 f43e 28d8 673d f5a4 10bf
000000a0: 5c66 1bbf ca05 f4be d782 453f 5b44 493f
000000b0: 1255 cb3f 5a31 41bd 5626 5f3e 8863 3b3e
000000c0: c62e 91bf 7707 183f 9c88 473f 279f ec3e
000000d0: 48d0 8d3f 59f1 f0be 46c4 483e 74ce e83e
000000e0: ae82 053f dc7a 85bf ae57 6abf a87b 1a3e
000000f0: 20c8 de3f b519 9ebe 4a87 4cbe 3d15 74be
00000100: c50b d23e c165 8c3f e98c 4f3e dbc2 7ebe
00000110: 34cf 85be 6062 e73e 82b3 28be 0450 0abf
00000120: 7885 cebe c188 b23f 80c0 5dbe 78f8 78be
00000130: 8c59 4fbf f138 7f3c b8ac ef3d f085 223e
00000140: bd63 c2bf 2c55 923f 49b4 013e 8d4b debe
00000150: 7e08 1cbf 2407 82bf 8ad4 81be 9619 823f
00000160: 9add 66be 5db7 6e3e 9db6 8fbe b4ec 403e
00000170: 0843 64be 8bb6 603e b0d3 d83c f89b 843f
00000180: e375 62bf 9356 94bf 65c9 9dbe 94d9 d43d
00000190: bac7 7ebf 2e9a 823f c404 43be fe0f 8b3f
000001a0: ddca 963f 0cb4 bcbe 6727 f3bd 06eb 23be
000001b0: b31a c6be 4f7f 2f3f fda9 b43e 572d 19bf
000001c0: 873b 233e 0cdb e23f 786e 02be de02 bd3e
000001d0: 114e 2cbf ef06 25bf b16e 923e 2382 cabf
000001e0: dff7 683f a45a fb3e b21a 023e 5d60 a8be
000001f0: 7191 1bbf 260c a8be e1e7 3fbe 50eb dd3e
00000200: f6e3 773f 3a3b 213e 7b28 8a3e c1e7 203f
00000210: bc2e 4b3f 97bd b2be 3c96 8fbe e476 c0bf
00000220: 31b3 a03c 99d3 dd3e f43e ebbd 19b2 afbd
00000230: 4ba8 32bf e360 b33f 15bc a03e ed63 b8bf
00000240: 8e4b 1ebf 8672 553e f024 823d b9b2 2bbe
00000250: be29 5abf bb7a 9f3f c022 78be a946 b33e
00000260: 3dbb 8b3e 5f5f 4f3f e5ee 43be e210 c73e
00000270: a534 1e3f b183 62bf 9097 2fbd b1b4 a4bd
00000280: 6c4a 97bf 006b a0be e217 8dbe 2da9 e23d
00000290: 4bc8 b1be 6b7f efbe 8050 ddbc 20e8 d63f

fc3.bias f4 [21]
0.81986284 0.058354463 0.60578674 -0.30782765 0.30717623 -1.9785873 0.25078076 -0.24805212
-0.4437521 0.21779461 -0.116475016 -0.3382997 -0.07802435 -0.123255625 0.3935772 -0.44262135
-0.60285777 -0.15654105 0.49562058 0.53675485 0.011515674
00000000: 88e2 513f 1705 6f3d d714 1b3f 969b 9dbe
00000010: 3446 9d3e 5942 fdbf 5666 803e 6001 7ebe
00000020: 7a33 e3be 8d05 5f3e 748a eebd 9e35 adbe
00000030: 3bcb 9fbd 726d fcbd f382 c93e 449f e2be
00000040: e354 1abf 4c4c 20be fbc1 fd3e c468 093f
00000050: 3dac 3c3c
