model_ml/model/model.pth (torch, 5108 bytes, 6 tensors)

fc1.weight f4 [8, 57]
0.082537994 -0.26280284 0.06429538 0.3029311 -0.09793289 0.09883404 -0.11755275 -0.03801068
-0.35051185 0.8077558 -0.5893041 0.062498316 0.24199152 -0.16020927 -0.4332227 0.9003092
0.54509354 0.1316727 -0.18343398 -0.19536702 0.115116775 0.023363065 -0.07708348 0.1659871
0.01278514 -0.02128901 -0.7770337 0.78790736 0.7066782 0.60748917 0.030922217 0.21333629
0.056028135 0.1954434 0.090112366 -0.0057925098 -0.20845142 0.24326105 0.030116277 0.08097205
0.14759369 0.6536668 -0.50622636 0.6199977 -0.24509129 -0.2737719 -0.18705559 0.0159957
0.042620458 0.46652403 0.17055313 0.01617361 0.21745433 0.4260986 0.16706651 -0.041030355
0.39813605 0.20295528 0.06989025 0.13484968 0.010826013 -0.052498985 -0.099119104 -0.110531524
-0.13955818 -0.45203343 0.0049626282 -0.006750731 -0.051414046 -0.026063522 -0.10576609 0.28582737
-0.04056167 0.17811298 0.3590736 -0.1894963 -0.20484038 0.44210693 0.011785041 -0.103364795
-0.13461532 -0.04675649 0.10338151 0.31337348 -0.08427947 -0.147241 0.4354337 -0.10680278
0.036141276 0.033623703 -0.20560001 -0.07251169 0.117901504 0.030406054 -0.07194225 0.009791406
-0.036216576 -0.018574111 0.5414305 -0.040570352 -0.118765436 -0.07424826 -0.3892766 0.50571275
-0.07401947 0.081797086 0.07819533 0.04723936 -0.06997459 -0.1632422 0.5392856 -0.11295908
0.052936085 0.05900299 0.04750792 1.3853576e-05 -0.08287864 0.031113464 0.025449654 -0.07365405
0.08570438 0.0043866877 -0.062398463 0.11055176 0.71555847 0.029421933 -0.17851318 -0.07806953
0.42712831 0.072300084 0.15929762 -0.24112706 0.09805482 0.3004428 -0.18219328 0.12939286
-0.057900786 0.05348038 0.12839171 -0.079604425 -0.008313395 0.10415421 0.092202544 0.04367555
-0.009090077 0.018424945 0.036113035 0.1736228 0.06038262 -0.13078055 0.3600825 -0.0036932135
0.015183728 -0.04262 -0.14691137 -0.40772775 -0.25636616 -0.017198099 0.2933486 -0.08526056
-0.53046554 -0.07920521 -0.06680397 0.13517688 -0.15673813 -0.1563466 -0.1413194 0.39700973
-0.10362703 0.030735983 0.0022611432 -0.1867252 0.37749353 -0.21938097 0.32507616 -0.019612033
-0.027228799 0.11529655 -0.0395862 -0.15559861 -0.36757484 0.30724886 -0.024270333 -0.023121484
-0.008400637 1.9841266 -0.38599992 0.052299514 0.40657052 -0.1400259 1.2319399 0.47925064
0.03055557 -0.08642136 0.008730326 -0.04923165 -0.019311076 -0.2956598 -0.39314005 1.5447946
-0.3723121 0.10090656 -0.0068390463 0.18513346 0.5302414 0.10256608 -0.22668801 -0.05807263
0.012478396 0.11341999 -0.089445345 -0.1825564 -0.11918032 0.6687999 -0.6634386 0.03254241
-0.121349856 -0.651687 -0.2192802 0.1759566 0.14003482 -0.11097487 0.24607874 -0.66952205
0.26217422 0.56300384 0.26073104 -0.18222612 0.15507859 -0.1168925 0.20150849 -0.10366954
-0.024919385 0.16325042 0.0997986 0.010805138 -0.03353488 0.6968754 0.12373356 -0.11155831
-0.11859459 -0.20174672 0.3462084 0.029900389 -0.25768238 0.6646493 -0.06915244 -0.6323923
0.6053608 -0.003346622 -0.110507764 0.35709 0.004889846 0.023485824 -0.165423 0.8178038
00000000: ae09 a93d 188e 86be 4cad 833d c919 9b3e
00000010: 0a91 c8bd 8069 ca3d 7fbf f0bd 16b1 1bbd
00000020: 4a76 b3be 16c9 4e3f a2dc 16bf 3cfe 7f3d
00000030: a0cc 773e e60d 24be 5ecf ddbe aa7a 663f
00000040: 408b 0b3f 35d5 063e 1ed6 3bbe 4b0e 48be
00000050: 58c2 eb3d e663 bf3c f2dd 9dbd 86f8 293e
00000060: c478 513c 4a66 aebc aeeb 46bf 4cb4 493f
00000070: dde8 343f 6984 1b3f 9750 fd3c d474 5a3e
00000080: c27d 653d 5122 483e d58c b83d 18cf bdbb
00000090: 4a74 55be 6d19 793e 69b6 f63c add4 a53d
000000a0: cd22 173e b556 273f 0d98 01bf 2bb8 1e3f
000000b0: 36f9 7abe d52b 8cbe 808b 3fbe 6a09 833c
000000c0: ca92 2e3d 3ddc ee3e 7ba5 2e3e 857e 843c
000000d0: 59ac 5e3e 9829 da3e 7c13 2b3e 720f 28bd
000000e0: 7dd8 cb3e 82d3 4f3e 9f22 8f3d 0916 0a3e
000000f0: 975f 313c 2d09 57bd f5fe cabd 5a5e e2bd
00000100: 57e8 0ebe ed70 e7be 8b9d a23b 3c35 ddbb
00000110: 8997 52bd 2b83 d5bc e49b d8bd f757 923e
00000120: fe23 26bd 4063 363e 7fd8 b73e 510b 42be
00000130: adc1 51be d75b e23e 0b16 413c ecb0 d3bd
00000140: 99d8 09be bc83 3fbd afb9 d33d 7d72 a03e
00000150: b79a acbd 58c6 16be 2af1 de3e 6abb dabd
00000160: e008 143d 02b9 093d cf88 52be 0281 94bd
00000170: 5876 f13d 1e16 f93c 7556 93bd 226c 203c
00000180: d557 14bd bc28 98bc 309b 0a3f 192d 26bd
00000190: 4b3b f3bd 790f 98bd 434f c7be 6476 013f
000001a0: 8597 97bd 3b85 a73d e024 a03d 0f7e 413d
000001b0: d64e 8fbd f728 27be 9f0e 0a3f 1757 e7bd
000001c0: 82d3 583d 1fad 713d aa97 423d a86c 6837
000001d0: 47bc a9bd aae1 fe3c cb7b d03c efd7 96bd
000001e0: c785 af3d 34be 8f3b 8895 7fbd f668 e23d
000001f0: d72e 373f 4406 f13c 29cc 36be ebe2 9fbd
00000200: 90b0 da3e 1112 943d ea1e 233e 03ea 76be
00000210: f7d0 c83d a4d3 993e e090 3abe 907f 043e
00000220: 6029 6dbd 3e0e 5b3d 1e79 033e a507 a3bd
00000230: e834 08bc cd4e d53d b0d4 bc3d 22e5 323d
00000240: 8cee 14bc e9ef 963c 43eb 133d 2dca 313e
00000250: c453 773d 56eb 05be bc5c b83e d709 72bb
00000260: 2cc5 783c 4f92 2ebd ef6f 16be b1c1 d0be
00000270: 6d42 83be 07e3 8cbc ca31 963e 179d aebd
00000280: 97cc 07bf 5736 a2bd 85d0 88bd cf6b 0a3e
00000290: f67f 20be 5319 20be 08b6 10be dc44 cb3e
000002a0: 693a d4bd 07ca fb3c b02f 143b e434 3fbe
000002b0: d546 c13e 68a5 60be 6270 a63e 6aa9 a0bc
000002c0: ee0e dfbc 9920 ec3d 2425 22bd 3e55 1fbe
000002d0: c532 bcbe b94f 9d3e 94d2 c6bc 4469 bdbc
000002e0: d3a2 09bc dcf7 fd3f c8a1 c5be 0438 563d
000002f0: 032a d03e f362 0fbe 35b0 9d3f 5760 f53e
00000300: ad4f fa3c affd b0bd a409 0f3c 20a7 49bd
00000310: 4332 9ebc b960 97be a749 c9be d4bb c53f
00000320: b19f bebe 19a8 ce3d 141a e0bb a093 3d3e
00000330: e6bd 073f 2a0e d23d e720 68be 91dd 6dbd
00000340: 3072 4c3c bd48 e83d 1f2f b7bd 11f0 3abe
00000350: d014 f4bd 7836 2b3f 1dd7 29bf 314b 053d
00000360: 4686 f8bd f6d4 26bf fd8a 60be f82d 343e
00000370: 4a65 0f3e cb46 e3bd 11fc 7b3e cc65 2bbf
00000380: b33b 863e 0521 103f 8a7e 853e 7c99 3abe
00000390: eccc 1e3e 5665 efbd 3e58 4e3e b250 d4bd
000003a0: bd23 ccbc 1e2b 273e 3563 cc3d 0908 313c
000003b0: df5b 09bd 6d66 323f 0568 fd3d af78 e4bd
000003c0: b8e1 f2bd b196 4ebe 3a42 b13e a9f1 f43c
000003d0: f2ee 83be 7526 2a3f cb9f 8dbd 76e4 21bf
000003e0: edf8 1a3f 0053 5bbb e551 e2bd 80d4 b63e
000003f0: 003b a03b 5865 c03c a664 29be 975b 513f

fc1.bias f4 [8]
1.3797611 0.24540417 0.23000741 0.9702558 0.28317806 0.9060373 1.2621996 0.50839895
00000000: 039c b03f 3b4b 7b3e 1087 6b3e af62 783f
00000010: b7fc 903e 0ff2 673f c28f a13f 6f26 023f

fc2.weight f4 [8, 8]
0.47111794 0.7492841 -0.5944799 0.043673035 0.4794423 0.08663716 -0.42041856 1.2419568
-0.82993716 -0.3863853 0.18496123 2.9218721 0.17031674 -0.9030515 1.3682728 0.9484361
-0.4887177 -0.3399636 0.15946084 -0.38829538 -0.51971537 2.4774055 1.213477 0.11308118
1.200808 -0.16171099 0.27636996 -0.79435986 0.7488821 -0.6364558 0.8358535 -0.15904468
0.97252715 0.2863778 -1.0211278 -1.1929777 1.1653599 -0.5831918 2.7386217 0.5750165
1.1969019 -0.6814819 0.6373153 -0.004274159 0.31597257 -0.15029721 -0.04269068 -0.7905614
0.55019176 0.8813615 0.5909386 0.70757616 1.025765 1.5080792 -0.5400572 2.0897708
1.9509324 -0.4940318 -0.2617719 1.401469 -0.10293038 -0.32878703 -0.91764253 -0.9627692
00000000: 5f36 f13e 15d1 3f3f d62f 18bf 7fe2 323d
00000010: 7679 f53e d36e b13d 1a41 d7be 71f8 9e3f
00000020: c376 54bf 4bd4 c5be 7a66 3d3e f4ff 3a40
00000030: 8367 2e3e 622e 67bf 9023 af3f b5cc 723f
00000040: 3539 fabe b50f aebe b449 233e a7ce c6be
00000050: 110c 05bf d08d 1e40 3753 9b3f 1b97 e73d
00000060: 14b4 993f 9197 25be 5d80 8d3e 2b5b 4bbf
00000070: bdb6 3f3f c4ee 22bf 7ffa 553f 9cdc 22be
00000080: 8af7 783f 1ca0 923e 51b4 82bf 7eb3 98bf
00000090: 832a 953f 0f4c 15bf 9445 2f40 4834 133f
000000a0: 1534 993f 9975 2ebf 1827 233f 3f0e 8cbb
000000b0: 28c7 a13e 83e7 19be 6cdc 2ebd 3b62 4abf
000000c0: 5ed9 0c3f e8a0 613f c147 173f b623 353f
000000d0: 444c 833f bd08 c13f 3041 0abf cebe 0540
000000e0: 27b8 f93f bcf1 fcbe f706 86be 5663 b33f
000000f0: 2acd d2bd c656 a8be 9fea 6abf 0b78 76bf

fc2.bias f4 [8]
-0.31173664 -0.79424894 1.2455246 -0.48647228 0.10114386 -0.1304909 -0.8693382 2.2990198
00000000: f29b 9fbe e653 4bbf 5a6d 9f3f e512 f9be
00000010: 8324 cf3d 689f 05be f38c 5ebf 2423 1340

fc3.weight f4 [18, 8]
-0.45044586 -1.1233662 0.07076416 -0.04324033 -1.3079729 0.10174109 -1.1868187 1.9806523
0.1483802 -0.82481164 -0.7523411 0.92739785 0.825484 0.75853765 0.29199708 -0.017407188
0.049113523 0.8618881 1.0736599 -0.48731774 -0.6539785 0.3502613 0.1275795 -0.5696777
-0.064907335 -0.039669238 1.025081 -0.34317902 -1.413717 -0.5403243 0.029066315 0.9788486
1.0277711 1.1314945 -0.9129381 -0.2833736 0.10328014 -0.34877786 0.826387 -0.86304027
0.6838052 0.08927709 -0.31171337 0.23341738 0.8048727 -0.5432875 0.97148454 -0.40346467
-0.6142412 1.6746099 -0.6911058 0.18176854 -1.0050478 -0.16338319 0.27865624 -0.42794997
-0.15114732 0.26386246 -0.1022397 0.6248547 0.29893893 0.6122627 -0.6096142 0.7141983
-0.038740147 -0.41883087 1.4614755 -0.88662773 0.18812038 -0.055674672 0.18707556 -0.8077938
-0.025168162 -1.0502193 0.70164365 0.6052791 1.1242635 -0.29793966 -0.019930221 -1.3920118
0.8723576 -0.581435 -0.8866147 0.08687161 0.13140526 -0.14246364 0.27970093 1.0367154
-0.09478137 1.406089 -0.29166186 -0.38057575 0.068960786 -0.11401935 -1.018803 -0.062831424
-0.06468842 -1.382453 0.83988214 0.25351444 0.7628477 0.6629005 -1.0657445 0.38988712
0.3892201 -0.22229286 0.74249995 -0.0716985 -0.9258015 -0.26286253 1.5157889 -0.7871222
-0.16567276 0.3294687 0.6355957 -0.5253112 0.8822978 -0.57531077 -0.2924924 -0.05751311
-0.23888658 0.6778457 -0.34871697 0.84476805 1.1623946 -0.15249543 -0.91508985 -0.7834408
-0.11921186 0.6981192 -0.96546626 -0.120025106 -0.77184254 0.75411373 0.15658239 0.98003876
0.4145208 -0.8535605 0.08555534 -0.37203428 -1.1077815 0.16614673 1.2627463 0.51324856
00000000: d7a0 e6be 77ca 8fbf cdec 903d c61c 31bd
00000010: a86b a7bf a25d d03d ade9 97bf 0486 fd3f
00000020: fbf0 173e db26 53bf 6d99 40bf f269 6d3f
00000030: eb52 533f 862f 423f a480 953e 8599 8ebc
00000040: 432b 493d b3a4 5c3f b06d 893f b681 f9be
00000050: 236b 27bf 7355 b33e 33a4 023e 66d6 11bf
00000060: 23ee 84bd 367c 22bd db35 833f 29b5 afbe
00000070: aef4 b4bf b152 0abf 7b1c ee3c d295 7a3f
00000080: 018e 833f d0d4 903f 50b6 69bf 5816 91be
00000090: 8a84 d33d 0393 b2be 198e 533f 35f0 5cbf
000000a0: dc0d 2f3f e8d6 b63d e598 9fbe f704 6f3e
000000b0: 230c 4e3f e414 0bbf 36b3 783f ec92 cebe
000000c0: e93e 1dbf 9e59 d63f 4fec 30bf 8821 3a3e
000000d0: 68a5 80bf ec4d 27be 08ac 8e3e 421c dbbe
000000e0: 5dc6 1abe fb18 873e 0c63 d1bd 7af6 1f3f
000000f0: 860e 993e 40bd 1c3f ad0f 1cbf b3d5 363f
00000100: fdad 1ebd 0071 d6be a111 bb3f 09fa 62bf
00000110: a1a2 403e 200b 64bd bc90 3f3e 93cb 4ebf
00000120: 762d cebc 966d 86bf eb9e 333f 92f3 1a3f
00000130: dee7 8f3f 8c8b 98be b444 a3bc 712d b2bf
00000140: d452 5f3f edd8 14bf 2ef9 62bf bee9 b13d
00000150: 1a8f 063e fde1 11be f634 8f3e 17b3 843f
00000160: bc1c c2bd b9fa b33f b454 95be d3da c2be
00000170: 503b 8d3d fa82 e9bd 2368 82bf c3ad 80bd
00000180: 5d7b 84bd 38f4 b0bf 8402 573f a5cc 813e
00000190: fd49 433f d9b3 293f 516a 88bf 499f c73e
000001a0: db47 c73e bda0 63be 7a14 3e3f aad6 92bd
000001b0: 5401 6dbf eb95 86be 5f05 c23f d780 49bf
000001c0: 1fa6 29be 1fb0 a83e 66b6 223f cb7a 06bf
000001d0: 45de 613f 9147 13bf 90c1 95be de92 6bbd
000001e0: af9e 74be 4c87 2d3f 088b b2be b842 583f
000001f0: 59c9 943f c327 1cbe 5443 6abf 948f 48bf
00000200: 5925 f4bd f1b7 323f cc28 77bf b9cf f5bd
00000210: 7997 45bf 990d 413f 2257 203e d2e3 7a3f
00000220: 123c d43e f182 5abf a337 af3d 477b bebe
00000230: c9cb 8dbf 5e22 2a3e aca1 a13f 4264 033f

fc3.bias f4 [18]
1.6146858 -0.34849602 -0.43908504 0.56494904 -0.9230212 0.2404369 -0.18299928 -0.36714464
0.33453918 -0.06320859 0.8210946 -0.49391413 0.9013804 -0.41678572 -0.2608926 -0.65034586
-0.35961455 0.48906705
00000000: 06ae ce3f 126e b2be c1cf e0be 80a0 103f
00000010: 1e4b 6cbf 1735 763e 2a64 3bbe 62fa bbbe
00000020: b848 ab3e 8173 81bd 4133 523f 50e2 fcbe
00000030: dec0 663f f064 d5be b793 85be 117d 26bf
00000040: 661f b8be ff66 fa3e
