model_ml/model/model.pth (torch, 4788 bytes, 6 tensors)

fc1.weight f4 [8, 51]
0	0x3cabee2d	0.020987595
1	0xbc8195a4	-0.015818425
2	0x3e44f874	0.19235402
3	0xbdf941c2	-0.121707454
4	0x3dddbc4a	0.10826929
5	0xbbcd1aa0	-0.0062592775
6	0xbd54c8ee	-0.051949434
7	0x3d8c5149	0.068514414
8	0xbc21f180	-0.009884238
9	0x3eca24a4	0.3948108
10	0xbe80307a	-0.25036985
11	0xbe841210	-0.2579503
12	0x3db3cbab	0.08779081
13	0xbdc907aa	-0.09815915
14	0x3c34f71a	0.011045242
15	0x3e3efa4b	0.18650167
16	0x3ba8b70e	0.005148775
17	0xbceb05bc	-0.028689258
18	0x3df2f8ac	0.11863837
19	0x3dfd4c02	0.12368013
20	0x3e2b6f2c	0.16741627
21	0x3e50a9d8	0.2037729
22	0xbdf24cca	-0.118310526
23	0xbcec1786	-0.02881981
24	0x3ea9a922	0.3313685
25	0xbdee9fa0	-0.1165154
26	0xbe2ed7ee	-0.17074558
27	0x3da8e67e	0.08247088
28	0xbd17ec48	-0.03709057
29	0x354b302e	7.5693504e-07
30	0xbc3d7dd9	-0.011565649
31	0xbbc63300	-0.00604856
32	0x3c7d79cb	0.015470932
33	0x3e1550a9	0.1458155
34	0x3d7afb3d	0.061274756
35	0x3d5cebe7	0.05393591
36	0xbe09ef18	-0.13470113
37	0x3e1b9c0c	0.15196246
38	0xbe0b8c79	-0.13627805
39	0xbdb26fd1	-0.087127335
40	0xbe0dd6cc	-0.1385147
41	0x3edc526c	0.43031633
42	0xbcd07de3	-0.025450652
43	0x3ec93cca	0.3930419
44	0x3ce2721e	0.027642306
45	0xbc475742	-0.0121668
46	0xbdcb07a6	-0.09913568
47	0x3da06533	0.07831802
48	0xb9e7254f	-0.0004408755
49	0xbe3ea242	-0.18616584
50	0xbd6459b1	-0.0557496
51	0xbd924d6e	-0.07143675
52	0x3f1419f4	0.578521
53	0xbe0c070c	-0.13674563
54	0x3d119e49	0.035551343
55	0xbd8f82a4	-0.070073396
56	0xbc1360c8	-0.008995242
57	0x3e3417cc	0.17587203
58	0xbe80cd49	-0.2515662
59	0x3ea12593	0.3147398
60	0x3d4003e2	0.046878703
61	0x3f04a1e0	0.518095
62	0x3f72f188	0.948998
63	0xbf2e6273	-0.6811897
64	0x3f93c43b	1.154426
65	0x3d817fc6	0.06323199
66	0x3f9169d9	1.1360427
67	0x3b0b96bf	0.0021299568
68	0xbec02509	-0.37528256
69	0xbd840f4d	-0.06448231
70	0xbdce9cf2	-0.10088529
71	0xbdd1aa0c	-0.10237512
72	0x3ecf4b1d	0.40486994
73	0xbe803e6f	-0.25047633
74	0xbd4fce70	-0.050733984
75	0xbe53d71f	-0.20687531
76	0x3dff2299	0.12457771
77	0x3f267f1b	0.650377
78	0xbdf224a7	-0.11823397
79	0x3e63f503	0.22261433
80	0x3e8dc9a3	0.276929
81	0xbc992ad1	-0.018697174
82	0x3e50bcae	0.20384476
83	0xbb244e6a	-0.0025071152
84	0x3d4c04ab	0.04980914
85	0x3db5f69e	0.08884929
86	0xbe4390f1	-0.1909826
87	0x3e545a3c	0.20737547
88	0x3e8a5939	0.27021196
89	0xbf2fb31e	-0.68632686
90	0x3e5727d4	0.21011287
91	0x3a400d47	0.0007326197
92	0xbdbbbcd2	-0.09166874
93	0xbd5e7bf9	-0.05431745
94	0x3e0d858b	0.13820474
95	0xbdec4b53	-0.115378045
96	0x3e2806f2	0.164089
97	0xbf55c9dc	-0.8351114
98	0x3f82b0da	1.0210221
99	0x3e519fd3	0.20471124
100	0x3e398321	0.18116428
101	0xbda7d33f	-0.08194589
102	0xbdb995a0	-0.09061742
103	0x3daecc2f	0.08535039
104	0xbeae591c	-0.3405236
105	0x3edf3392	0.43594033
106	0xbdf049ff	-0.11732864
107	0xbe00318c	-0.125189
108	0x3e133eb7	0.14379393
109	0x3edf7d0b	0.43650088
110	0x3db9af17	0.09066599
111	0xbe1899e3	-0.14902453
112	0x3f21bbfb	0.6317746
113	0xbf70ff01	-0.94139105
114	0x3d52788f	0.051384505
115	0x3e8b1de6	0.27171248
116	0xbee44e3c	-0.44590938
117	0x3f15fa8d	0.58585435
118	0xbeeaec41	-0.45883372
119	0xbd623db2	-0.05523462
120	0x3d048ef1	0.032362882
121	0xbd56b701	-0.05242062
122	0xbe958d2e	-0.29209274
123	0xbf2b2d6b	-0.6686618
124	0x3e83b52e	0.25724167
125	0x3f9f7da8	1.2460222
126	0xbe485a82	-0.19565776
127	0xbccd7c76	-0.025083762
128	0x3ecb48af	0.3970389
129	0x3e5c2114	0.21496993
130	0x3f066b72	0.525077
131	0x3d8f16a3	0.069867395
132	0xbe825ef6	-0.25463074
133	0x3f02b8dc	0.51063323
134	0xbd60f8f6	-0.054924928
135	0xbe32e555	-0.17470296
136	0x3dfb6407	0.12274938
137	0xbde05a2d	-0.109547
138	0x3fa6ae86	1.302201
139	0x3dbc544a	0.09195764
140	0x3e31cdfd	0.17363735
141	0x3ef8caa6	0.48592108
142	0xbec3b711	-0.38225606
143	0xbe808d97	-0.25108024
144	0x3e65b546	0.22432432
145	0xbd828e0d	-0.0637475
146	0xbec03b18	-0.37545085
147	0x3e9ff52e	0.31241745
148	0xbe3463b6	-0.17616162
149	0xbf46a23c	-0.775913
150	0x3eac2165	0.33619228
151	0xbd56ec96	-0.05247172
152	0x3e427057	0.18988167
153	0x3e9b66b7	0.30351803
154	0x3e655a1e	0.22397658
155	0x3ec4ece3	0.3846198
156	0xbda06439	-0.07831616
157	0x3e889d79	0.26682642
158	0x3d603161	0.05473459
159	0xbe0ba644	-0.13637644
160	0xba31743e	-0.00067693356
161	0xbdd908d5	-0.10597388
162	0xbc04fea8	-0.008117355
163	0xbd7f7fa1	-0.062377576
164	0x3fa281b0	1.2695827
165	0x3f0d8acb	0.55289906
166	0xbf1e9ac6	-0.61954916
167	0x3f865648	1.0495081
168	0xbe74b700	-0.23897934
169	0x3f6e0a2e	0.9298428
170	0x3ee8f384	0.45498288
171	0x3e1152dd	0.14191766
172	0x3ddcbb4e	0.10777913
173	0xbde099f2	-0.10966863
174	0x3f60da05	0.8783267
175	0x3d2fe832	0.042946048
176	0xbf524bc0	-0.82146835
177	0x3f1fe42a	0.62457526
178	0x3a60d102	0.00085760665
179	0xbeb22075	-0.34790388
180	0x3d152a8f	0.03641754
181	0x3dbd5dec	0.0924643
182	0x3e81b378	0.25332236
183	0x3e0fc761	0.14040901
184	0x3decf8e4	0.115709096
185	0xbde2d576	-0.11075871
186	0x3c4cdea4	0.012504254
187	0xbcb7d057	-0.022438211
188	0x3ecfcf2a	0.4058774
189	0xbf48e850	-0.7847948
190	0xbf118de1	-0.56857115
191	0x3f24555e	0.6419276
192	0x3da0b657	0.078472786
193	0x3ed7299c	0.42023933
194	0xbe7792a8	-0.24177039
195	0xbccca666	-0.024981689
196	0x3e86913e	0.26282686
197	0x3e3a8b35	0.18217166
198	0xbd942697	-0.07233923
199	0x3eba27a9	0.36358383
200	0xbeb42295	-0.35182634
201	0xbefd437e	-0.49465555
202	0x3d9fa434	0.07794991
203	0x3de1ecdd	0.11031506
204	0xbd8c8226	-0.06860761
205	0xbb59b94c	-0.0033222018
206	0x3cbe63d0	0.023240954
207	0x3e32b591	0.17452075
208	0xbcdde963	-0.027088827
209	0xbd7c56c7	-0.061606195
210	0x3c207f23	0.009795937
211	0x3f0480ff	0.5175933
212	0xbe08c946	-0.1335803
213	0xbd8297d0	-0.06376612
214	0xbde589fa	-0.112079576
215	0xbc3cb831	-0.011518524
216	0x3ddea2cd	0.108708955
217	0xbe3b714e	-0.18304941
218	0xbc16cf9b	-0.00920477
219	0xbe1380fa	-0.1440467
220	0xbd7e0ecd	-0.062025834
221	0x3e964cf3	0.29355583
222	0x3e179dab	0.1480624
223	0xbd0240fe	-0.031800263
224	0xbdef77f4	-0.11692801
225	0x3d3d51f0	0.04622072
226	0x3f08ae50	0.5339098
227	0x3e15c53e	0.14626023
228	0x3ea423de	0.32058614
229	0xbdc8f3c9	-0.09812123
230	0xbe34d214	-0.17658263
231	0x3d5fd0d5	0.054642517
232	0x3ef40101	0.47657016
233	0x3e04864f	0.1294186
234	0x3bc85510	0.006113656
235	0x3e8502c3	0.2597867
236	0x3dbeb25e	0.093113646
237	0xbd5977e2	-0.053092845
238	0x3e678e7d	0.22612949
239	0x3e4924f9	0.1964301
240	0xbdc31d4b	-0.095270716
241	0xbded61a6	-0.115908906
242	0x3e727d76	0.23680672
243	0x3ee6d8b7	0.45087215
244	0x3df66d6f	0.120325916
245	0x3ca85b05	0.020551214
246	0x3cd7e204	0.02635289
247	0xbd92fc22	-0.07176997
248	0x3ac26ca6	0.0014833405
249	0xbcd8d958	-0.026470825
250	0x3e28767f	0.16451453
251	0xbe58c05e	-0.21167132
252	0xbca3423f	-0.01992905
253	0xbe094b83	-0.13407712
254	0x3df347d7	0.11878937
255	0x3dca2a78	0.098713815

fc1.bias f4 [8]
0	0x3d82cc47	0.06386619
1	0x3fac45b3	1.345877
2	0x3fa0b2cd	1.2554566
3	0x3fc294ff	1.520172
4	0x3f3510ef	0.70728964
5	0x3f83503e	1.0258863
6	0xbe227a87	-0.15867053
7	0x3fa5e09c	1.295917

fc2.weight f4 [8, 8]
0	0x3ea7d1db	0.32777295
1	0x3e2d995f	0.16953038
2	0xbdaeace0	-0.08529067
3	0xbe8dfd69	-0.277324
4	0xbea6d463	-0.32583913
5	0xbe6c53d3	-0.23078851
6	0x3e4c5036	0.19952473
7	0xbea890e2	-0.32923037
8	0x3c127715	0.008939524
9	0x3fac5c29	1.3465625
10	0xbeba46ef	-0.36382243
11	0xbd6da058	-0.058014244
12	0xbee6d2ff	-0.45082852
13	0x3fcf7c10	1.6209736
14	0xbeac1be1	-0.3361502
15	0xbf5a71a8	-0.85329676
16	0xbede0d24	-0.433694
17	0x3fe9a207	1.8252572
18	0xbf72ab15	-0.947923
19	0x402094b2	2.5090756
20	0x3ef5dffc	0.4802245
21	0xbf5ae1c8	-0.85500765
22	0x3eacad39	0.33725908
23	0xbf8dfffd	-1.1093746
24	0xbe7d6a0e	-0.24747488
25	0x3fef979c	1.8718143
26	0x40153df8	2.3319073
27	0xbfe170e6	-1.7612579
28	0x3ef9fad6	0.48824185
29	0x3f5d4056	0.86426294
30	0x3e29737e	0.16547963
31	0x3eedd808	0.4645388
32	0x3de8d748	0.11369187
33	0xbeaa2aa9	-0.33235672
34	0x3b6be980	0.003599733
35	0xbe6e2f00	-0.23260117
36	0xbe85530e	-0.26039928
37	0xbe5aaa76	-0.21354088
38	0x3e0c3e9c	0.13695759
39	0xbe9518d5	-0.29120508
40	0x3f5bb65c	0.85825133
41	0xbf7db796	-0.99108255
42	0xbf2199c5	-0.6312526
43	0x3fabe164	1.3428159
44	0x3f819ba8	1.0125628
45	0x40239f89	2.5566123
46	0x3ea079b0	0.3134284
47	0x3fdde1da	1.733455
48	0x3d65d8b6	0.056114875
49	0xbe76830a	-0.24073425
50	0x3df0b5e2	0.117534414
51	0x3e71d07c	0.23614687
52	0xbd4cc518	-0.04999265
53	0xbea472fb	-0.32118973
54	0x3e607dc4	0.21922976
55	0xbcf14f2b	-0.029456696
56	0xbedc5599	-0.43034056
57	0xbf2fb860	-0.6864071
58	0x3ff4a03e	1.9111402
59	0x3f107c1b	0.5643937
60	0x3f3ce953	0.73793525
61	0xbe87524a	-0.2642997
62	0xbe8269d6	-0.2547137
63	0x3fd8f563	1.6949886

fc2.bias f4 [8]
0	0xbeb8c0cb	-0.3608459
1	0x3eaf3bef	0.34225413
2	0x3fba02be	1.4532087
3	0x3f0843a0	0.5322819
4	0xbd47ad28	-0.04874912
5	0x39e5c83e	0.00043827476
6	0xbdf44c19	-0.11928577
7	0x3efbfb4e	0.49215168

fc3.weight f4 [16, 8]
0	0xbe9544e3	-0.2915412
1	0xbeb5d2ac	-0.35512292
2	0xbfd1c700	-1.6388855
3	0x3e00a470	0.12562728
4	0x3e449dba	0.19200793
5	0x3fa08cfa	1.2543023
6	0xbeade5cd	-0.33964387
7	0x3eaf9a1e	0.3429727
8	0xbe36981b	-0.17831461
9	0xbd56f72a	-0.052481808
10	0x3e961c93	0.29318675
11	0x3f6452a0	0.89188576
12	0x3e9f9c31	0.31173852
13	0xbfcef75b	-1.6169237
14	0xbe3a979a	-0.18221894
15	0x3ee71b3d	0.4513797
16	0xbd6dd79c	-0.05806695
17	0xbe8221cd	-0.25416413
18	0x3fce688c	1.6125655
19	0xbfb0cc60	-1.381237
20	0xbe772c14	-0.24137908
21	0xbe85b53c	-0.26114833
22	0xbea73720	-0.32659245
23	0xbfab57b3	-1.3386139
24	0xbdfeaa22	-0.12434794
25	0xbed83e75	-0.4223515
26	0x3f513f56	0.8173727
27	0xbfc7d442	-1.5611651
28	0xbe5fc7f5	-0.21853621
29	0x3cf39618	0.029734656
30	0x3d9ad211	0.07559598
31	0x3f81a6ce	1.012903
32	0x3e6e55b5	0.23274882
33	0x3f2e3b14	0.68058896
34	0x3fa3d6a4	1.2799878
35	0xbeca3e21	-0.39500526
36	0xbcf1b020	-0.029502928
37	0xbf70c499	-0.94049984
38	0xbe3e37ec	-0.1857602
39	0xbf22c672	-0.63584054
40	0xbcfccfd1	-0.030860813
41	0xbd4e7814	-0.050407484
42	0xbea2f94b	-0.3183082
43	0x3edf2a2e	0.43586868
44	0xbea95c13	-0.3307806
45	0x3f132875	0.5748361
46	0xbb0c8124	-0.0021439278
47	0x3ecf70ea	0.40515834
48	0xbe51bc4d	-0.20481987
49	0x3e914b1a	0.2837761
50	0x3f38476e	0.71983993
51	0xbf2a65af	-0.66561407
52	0x3e8d5bd1	0.27609113
53	0x3f0a38bf	0.5399284
54	0xbe1f8059	-0.15576304
55	0xbe35fc4a	-0.17772022
56	0x3e9f00bf	0.31055257
57	0x3eb75833	0.35809478
58	0xbe8c57cb	-0.2741073
59	0xbfac2cca	-1.3451169
60	0x3ea9254b	0.33036265
61	0x3fb4695c	1.4094653
62	0xbe864080	-0.26221085
63	0xbf30659f	-0.6890506
64	0x3e87bf21	0.26513007
65	0xbdf0270e	-0.11726199
66	0xbf9488dd	-1.1604267
67	0x3fc930d7	1.571803
68	0xbdf79912	-0.12089743
69	0xbfb93e5d	-1.4472157
70	0xbb1acad7	-0.0023619437
71	0x3e435cf5	0.19078429
72	0xbdba1043	-0.09085133
73	0x3f4d05ef	0.8008718
74	0xbf37fb0c	-0.7186744
75	0x3f8459eb	1.0339941
76	0xbe32202b	-0.17395084
77	0xbe2c2ffe	-0.16815183
78	0xbe8d10ef	-0.27551982
79	0xbeaa9654	-0.33317816
80	0xbd090c27	-0.033458855
81	0xbf7e0e0e	-0.99240196
82	0xbf121382	-0.57061017
83	0xbf143812	-0.57898057
84	0xbe0f119a	-0.13971558
85	0x3f847d76	1.0350788
86	0xbe9db5c7	-0.30802748
87	0x3f506908	0.81410265
88	0x3d8df7a7	0.069320016
89	0xbf98ce76	-1.1938007
90	0xbde1c520	-0.11023927
91	0x3f3927a1	0.72326094
92	0xbe873c98	-0.26413417
93	0xbeaaeeb4	-0.3338524
94	0x3e32d30c	0.1746332
95	0x3f62b12e	0.88551605
96	0xbdf07ad0	-0.117421746
97	0x3edb7779	0.42864588
98	0x3f139c0f	0.5766
99	0x3ec96a1d	0.3933877
100	0x3e10f40e	0.141556
101	0xbea30064	-0.31836236
102	0xbeb11065	-0.3458282
103	0x3b068310	0.0020524897
104	0xbe9a65ce	-0.30155796
105	0x3f3b2b9e	0.7311343
106	0xbf860907	-1.0471505
107	0x3e8a0eb4	0.26964343
108	0xbe6885bd	-0.22707267
109	0x3f88c1fe	1.0684202
110	0x3c1af7fe	0.00945854
111	0xbf3f8a41	-0.74820334
112	0x3d255589	0.040364776
113	0xbf0aa601	-0.5415955
114	0xbfe56492	-1.7921317
115	0x3f7ca507	0.9868931
116	0xbe6f9fd5	-0.23400815
117	0xbda8bca2	-0.08239104
118	0xbea0f94e	-0.31440204
119	0x3f6d6927	0.92738575
120	0xbdd90b81	-0.10597897
121	0x3f468235	0.7754243
122	0x3ed7d307	0.4215319
123	0x3f4d3699	0.80161434
124	0x3eaa61b7	0.33277676
125	0xbfc7c5d8	-1.5607252
126	0xbc2a03a1	-0.010376842
127	0xbf9b3a09	-1.2127086

fc3.bias f4 [16]
0	0xbf8afd42	-1.0858538
1	0x3e9976de	0.299735
2	0x3fb07591	1.3785878
3	0x3ebdf488	0.37100625
4	0x3e5357a3	0.206389
5	0xbecca0af	-0.39966342
6	0x3ea5be5f	0.32371804
7	0xbeed2810	-0.46319628
8	0xbdb72ee8	-0.089444935
9	0xbee3dd45	-0.44504753
10	0x3f5f5834	0.8724396
11	0xbe315b1f	-0.17319916
12	0xbdebe867	-0.115189366
13	0x3c02fe07	0.007995135
14	0xbe4254f4	-0.1897772
15	0x3e4778e1	0.19479705
