model_ml/model/model.pth (torch, 3572 bytes, 6 tensors)

fc1.weight f4 [8, 21]
00000000: 718c b53d f9a1 873d 7107 59bd 746f d13d
00000010: 885b 9a3c 2694 d2bc c7a1 183d c79d bb3e
00000020: 2426 8f3e db30 41bd 42da a83e 0978 44bc
00000030: 383b 163e 3460 7b3c d5b3 323d 9df8 97bd
00000040: 4969 94bd 314c 44be 1400 07be 8951 90bd
00000050: e195 3f3e 04c9 48bd dad8 973e e3ce 0fbe
00000060: 925b 2dbd d028 c13d 52bf 1c3e ed90 24bf
00000070: e1c0 e83e 8913 1b3f d5c9 cc3d d4d7 3c3e
00000080: 2020 903f 59e6 403e d86f 78be 8d07 6ebc
00000090: 43c0 93be 8875 c23c f1e9 b33e f652 ecbc
000000a0: 2bc3 56be 2c03 80bd 19d8 3e3c c181 1e3e
000000b0: ad44 a7bd 15dd 013e 4b07 6fbd 9eb8 1d3e
000000c0: 178d 58bf a24e 903e 99d0 37be 75ba 853e
000000d0: a072 6dbe 8b2e 6c3f 327e 07bd 8f81 9b3e
000000e0: e8bd 0ebe 47a2 c03e c352 933e 5ebc 15be
000000f0: df64 af3c 34e1 233d 4552 f73c c41a 1cbe
00000100: 72d4 f7bd d7a4 8c3e 4c8a febd 1dc0 46be
00000110: 3262 8dbe 34c2 793f 7fa2 fa3e f484 c73f
00000120: 31d7 03bf 1947 a53f 17a1 46bf 20a0 2d3e
00000130: 1e98 133e 71cc b9bd ddab 0dbc 299a ed3e
00000140: bc8d b43d 02c5 a0bd f9d9 6e3e 984e b7bc
00000150: 3859 22be 7f81 ae3e 894e 8e3e bf4e 273e
00000160: e631 42be 7f36 51be aefa 943f 409b 6ebe
00000170: 5280 cd3e 78df f2bd 7ed7 f53e 863e 8fbe
00000180: 20ce 2f3e 54f5 553e c2ef 363e 0775 d8be
00000190: 8b03 23be d647 863d d2dd 87bd 6204 23be
000001a0: 8b96 2bba 869c 5f3d 9b92 59be bceb 4ebe
000001b0: 79d4 063e 7680 16be b2be 97be ed0d 11bf
000001c0: ac63 4b3f 8e41 023f d5fd 723f ffa7 113f
000001d0: 7d23 0dbe 3d1d c0bd 272f 97be 3fd2 c43d
000001e0: c32f 03bf 677b 8a3e 4285 053f a4dc ab3d
000001f0: 9a5a fcbd 1b44 62be d04c 263e 13ea ef3e
00000200: 15bd 073e c157 7e3d f442 2a3e 94cc 733f
00000210: a199 933f 9496 c4bd 96e8 1f3e e453 a83f
00000220: 5353 c8bd 238e ddbd d7cc 4b3e 16d5 223e
00000230: 798b 1d3e 6df2 8cbe eeb7 a8be 70ac 333d
00000240: 9bec bf3e 8ad0 f3be f678 063d e458 4cbe
00000250: 076b c8bb 97bf a43d 3afb 5fbe ec47 85bd
00000260: 2252 27be fb78 0b3e 6b8b 4e3a 3a84 85bc
00000270: 4baf 23be 97d5 50be 2ac3 06be 540c 84bd
00000280: e05e c43d d5c7 683d ba2d 41be 2ccc 94bd
00000290: 6721 4abe 4a39 bf3d 3a1a e3bd 5d05 b2bd
0.08864678 0.06622691 -0.052985612 0.10226336 0.018842474 -0.025705408 0.037263658 0.36643812
0.27958786 -0.047165733 0.32979017 -0.011991509 0.14671028 0.015342761 0.043628532 -0.07420466
-0.07246644 -0.1916969 -0.13183624 -0.070468016 0.18709518 -0.04901983 0.29657632 -0.14043765
-0.042323656 0.094316125 0.15307358 -0.6428364 0.45459655 0.60576683 0.09999434 0.18441707
1.1259804 0.1883787 -0.24261415 -0.014528167 -0.28857622 0.023737684 0.3513942 -0.028848153
-0.20972888 -0.06250605 0.011648201 0.15479185 -0.08167396 0.12681992 -0.058356564 0.15402457
-0.84590286 0.28184992 -0.17950667 0.26118818 -0.23188257 0.9225852 -0.033079334 0.30372283
-0.13939631 0.37623808 0.2877408 -0.14622638 0.021410404 0.040009692 0.030190596 -0.15244585
-0.121010676 0.27469513 -0.12428722 -0.19409223 -0.2761398 0.97561955 0.489521 1.5587449
-0.5150023 1.2912322 -0.77589554 0.16955614 0.14413497 -0.09072197 -0.008646932 0.46406677
0.08816096 -0.07850076 0.23325337 -0.022376344 -0.15854347 0.34083173 0.27794293 0.16338633
-0.18964347 -0.20430945 1.1639001 -0.2330141 0.40136963 -0.118590295 0.4801597 -0.2797739
0.17168474 0.20894367 0.17864898 -0.42276785 -0.1591932 0.0655667 -0.06634106 -0.1591964
-0.0006545565 0.05459263 -0.21247332 -0.20207113 0.1316699 -0.14697441 -0.29637676 -0.56661874
0.7944896 0.5088128 0.94918567 0.56896967 -0.13783069 -0.09380577 -0.29528162 0.09610414
-0.51244754 0.27047274 0.5215646 0.08391693 -0.123219684 -0.22096293 0.16240239 0.46858272
0.13255723 0.062095407 0.16627103 0.95234036 1.1531259 -0.09599033 0.15616068 1.3150601
-0.09781518 -0.10818126 0.19902359 0.15901598 0.15385236 -0.27528706 -0.32952827 0.04386562
0.37485203 -0.4762004 0.0328302 -0.19955784 -0.0061162743 0.08044355 -0.21873179 -0.06507859
-0.16339925 0.13620369 0.0007879051 -0.016298402 -0.15984838 -0.20393978 -0.13160387 -0.06447664
0.095884085 0.0568312 -0.188651 -0.07265505 -0.19739304 0.09337099 -0.11088987 -0.08692429

fc1.bias f4 [8]
00000000: b068 943d d7f7 0a3f a640 833f c0d7 483f
00000010: e603 233e 23aa d23c 9913 1f3f 283c f6bc
0.0724653 0.54284424 1.0254104 0.7845421 0.15919456 0.025715893 0.6213928 -0.030057982

fc2.weight f4 [8, 8]
00000000: 25ad 65bd 1d22 5dbe 1540 603d d051 343e
00000010: f232 6bbe b18d e9bd 920c ef3d 3330 4b3e
00000020: 1cf6 63be 394b 73bd 0f03 76be 984d 9fbe
00000030: 7db4 803e c7be 4ebe c855 a43d 0ac9 733e
00000040: a32e 0e3f fa36 523f 3083 13bf 70fb ce3f
00000050: 346a 0a3f 7dfc c73f 1824 133d defb 503e
00000060: 518f a43d 51c0 96be 16f0 2e3e 6b53 393e
00000070: 7491 bdbd 1874 63bc e18d 14be fcb2 933d
00000080: 8888 ea3d 17f8 21be 922d 84bf ad5d 673f
00000090: 40f3 283f 1a8f 9bbe cdda c4bd 1253 173e
000000a0: 16de 9cbe e006 8dbe 11c1 63bc d197 c13f
000000b0: 3181 bd3e 3ba9 17bf b27a 873e 8347 69be
000000c0: 3167 5bbe a025 1fbf 4796 07bf e2e5 c8bc
000000d0: 9da1 8b3f 039e 21be 7b48 0c40 3067 1dbe
000000e0: a060 84be 2a04 aa3f 5306 973f 0409 a1bf
000000f0: 2abf 0bbf 1c10 223f b87d 113f b38d 14be
-0.056073327 -0.21595044 0.054748613 0.17609334 -0.22968653 -0.114039786 0.116723195 0.19842605
-0.22261852 -0.05939791 -0.24024604 -0.31113887 0.25137702 -0.20189963 0.08024174 0.23807159
0.5553991 0.8211514 -0.5762205 1.6170483 0.54068303 1.5623928 0.035923094 0.2040858
0.08035148 -0.294436 0.17083773 0.18098228 -0.092562586 -0.013882659 -0.14507248 0.07211873
0.114518225 -0.15817295 -1.0326407 0.9037731 0.6599617 -0.30382615 -0.096120454 0.14777783
-0.30638188 -0.27544308 -0.013901011 1.5124456 0.37012628 -0.592426 0.26460797 -0.22781186
-0.21426083 -0.62166786 -0.5296368 -0.02452368 1.0908695 -0.15782933 2.1919239 -0.15371394
-0.2585497 1.3282521 1.1798805 -1.2580876 -0.5458857 0.6330583 0.56832457 -0.14507179

fc2.bias f4 [8]
00000000: 7323 9abe a104 a7be 6501 0bbf 5934 debe
00000010: 215d fdbe 4d0e 4f3f 007f f83e 7689 1c3f
-0.3010517 -0.3262072 -0.54299 -0.43399313 -0.49485114 0.80881196 0.48534393 0.6114725

fc3.weight f4 [7, 8]
00000000: f1b1 adbe d7a3 27be af7d 84bf 072b 103e
00000010: d733 1bbc df40 7bbe 768a 8a3f 382e fd3e
00000020: 6b31 81bd fb07 5abe 81bb 063f e34b abbd
00000030: 0656 c03f a098 913e 0580 1a3f dca5 25bf
00000040: 3e6f 383d b8f4 883d 7a3e e13f 4040 c2bd
00000050: 5c8b b5be 840a 9f3e 69cb 26bf 9c8b 94bf
00000060: 25a6 a33e b635 593e 4d87 3dbf 3662 ac3e
00000070: 5951 a4be a86d 803e 022b d63f cfb0 9abf
00000080: 2065 6fbe b4de 6cbe e2b7 7f3f ed19 cebd
00000090: 4b51 76be ee72 6bbf d1f9 aabc b528 3e3f
000000a0: 8515 2abe 02ea 663e 33cb 60bf fe15 64be
000000b0: 12cc 88be 72cc 78bf fb45 9abf d7c8 c13f
000000c0: 78aa 78be 3fd4 aabe bd4a 92be da80 7abe
000000d0: 3715 86be 90f8 9b3f e5ce 63bf 7fc1 38bc
-0.3392482 -0.16371094 -1.0350856 0.14078914 -0.009472809 -0.24536465 1.0823505 0.49449325
-0.06308254 -0.21292107 0.5262986 -0.083640836 1.5026252 0.28436756 0.6035159 -0.64706206
0.045027964 0.066873014 1.7597191 -0.09484911 -0.35457885 0.3106271 -0.6515413 -1.1605105
0.31962696 0.21211895 -0.7403458 0.3366868 -0.32093313 0.2508366 1.6731875 -1.2085208
-0.2337842 -0.2313183 0.9988996 -0.10063539 -0.24054448 -0.91972244 -0.020871075 0.74280864
-0.16609772 0.22550204 -0.8781006 -0.22274014 -0.26718193 -0.9718696 -1.2052606 1.5139416
-0.24283779 -0.33365056 -0.28572646 -0.24463215 -0.2618806 1.218523 -0.8898757 -0.011276602

fc3.bias f4 [7]
00000000: 1a76 e0bd 3e0b a6bf e42f 0ebf e756 cfbe
00000010: a771 b5be 1a7a 0c3f 0437 2140
-0.10960026 -1.2972181 -0.55541825 -0.4049599 -0.35438272 0.5487381 2.518983
