model_ml/model/model.pth (torch, 4468 bytes, 6 tensors)

fc1.weight f4 [8, 44]
0.11536936 0.15045743 0.41561395 -0.19540001 -0.012136358 0.10609021 0.11435005 -0.26923916
-0.1947827 -0.18950057 0.24030462 0.14272004 -0.13602978 0.05012313 -0.1936587 0.011757205
-0.18945046 0.12217865 0.811504 -0.11337359 -0.44520736 0.38968322 -0.078151144 -0.1323908
0.014750995 0.15408424 0.1285098 0.2294602 0.06322561 -0.029257206 -0.06560646 0.585387
0.07614484 0.22868241 0.39671433 -0.16321504 -0.11818034 0.011758966 0.13729642 -0.07398101
0.36837506 -0.4144986 -0.015306377 -0.15491603 0.2869256 -0.26065317 0.6722044 -0.15367328
-0.08584487 -0.0014624972 0.006381971 0.33828527 -0.3709589 -0.30443916 0.6540724 -0.036681127
0.40349504 -0.5815729 0.34988466 0.021121485 -0.0033702313 -0.071586095 0.70891017 0.29304823
-0.9310102 0.91462797 0.009431659 0.0728332 -0.26496026 -0.1485328 0.18418884 -0.0030019856
-0.03177546 -0.10638036 -0.11402401 0.877059 -0.02114521 0.7084505 0.033800717 -0.2674869
-0.055442408 0.5779762 0.35793436 -0.29265475 0.4637561 -0.5079001 -0.197998 -0.047972213
0.009051779 -0.030620955 -0.080599375 0.1663318 0.091519125 0.1834977 -0.13212973 -0.43343344
0.7457177 1.2783004 -0.1666853 -0.086803675 0.069979064 -0.62195206 0.054039605 -0.18711218
-0.018930554 0.0020108838 -0.009351473 -0.57191217 0.48886093 -0.39110413 0.024525149 -0.041873343
0.03191942 0.531775 -0.06359758 -0.6064895 0.038322106 -0.029431703 -0.108810194 0.92326766
-0.2904837 0.51330376 -0.7537554 -0.6816772 0.23169151 -0.4503838 -0.24974805 0.4744878
0.8701737 0.45249194 0.2033259 -0.09849547 -0.039197426 -0.0021319755 -0.15831944 -0.104736485
0.017902981 0.08435376 -0.23348153 -0.16549893 -0.28882557 1.5724815 -0.1483006 0.035387438
0.6787714 -0.31880632 0.72044206 -0.109307304 -0.07161002 -0.035945356 -0.534986 -0.24647197
0.21667676 0.03740455 0.22175376 -0.02399547 0.004488483 0.19932285 0.039650533 -0.3734894
-0.108804666 0.055855364 0.12101773 -0.13490967 0.11965428 0.4983669 -0.44178402 -0.13775109
-0.08014805 0.023876943 0.031715434 -0.08237362 0.3070711 0.13592812 0.1016644 0.09368388
-0.008313797 -0.07088605 -0.014149774 0.15732993 0.012895693 0.11875333 -0.1036116 0.635062
-0.096049346 0.4894303 0.041129474 0.1074226 1.2197797 -0.9904178 1.159195 -0.0998024
0.36162633 0.04913491 -0.5079179 0.8047746 0.4258267 0.17695907 0.1288635 -0.03970283
0.18418927 0.11529644 0.010331279 0.056309547 0.012209528 -0.02222518 0.14675908 -0.30815884
-0.12146765 -0.29993543 -0.04313106 0.015175372 0.20494565 -0.08572294 -0.048798356 -0.11262701
-0.4951464 0.1396637 0.07234706 0.35039294 0.10031469 -0.116109304 0.107591905 0.027942598
-0.14743957 -0.1420244 0.089048386 -0.14341708 -0.13232727 0.022478202 0.072263196 0.07219395
0.068737246 0.06547027 0.068736814 -0.11362316 -0.1147335 -0.07619069 -0.023097208 -0.020938426
-0.13631651 -0.009364489 -0.09083273 0.015453905 0.08694944 -0.07144804 0.093195155 -0.097203135
-0.12820691 0.065123715 -0.11737096 -0.057993103 0.06709964 0.016568579 0.10598041 0.025434077
00000000: c546 ec3d 8311 1a3e 5acb d43e f116 48be
00000010: 93d7 46bc d345 d93d 5c30 ea3d b7d9 89be
00000020: 1e75 47be 700c 42be 6a12 763e 3425 123e
00000030: 644b 0bbe e94d 4d3d 774e 46be 4ba1 403c
00000040: 4dff 41be cd38 fa3d babe 4f3f 6a30 e8bd
00000050: 38f2 e3be 8f84 c73e b50d a0bd 7491 07be
00000060: 28ae 713c 42c8 1d3e 1398 033e 9df7 6a3e
00000070: 6e7c 813d cfac efbc ae5c 86bd ecdb 153f
00000080: d3f1 9b3d b92b 6a3e 241e cb3e d821 27be
00000090: 8908 f2bd aea8 403c 6f97 0c3e 5b83 97bd
000000a0: a89b bc3e 2939 d4be 99c7 7abc 4fa2 1ebe
000000b0: eae7 923e 5574 85be 9615 2c3f 875c 1dbe
000000c0: 6fcf afbd 43b1 bfba da1f d13b ba33 ad3e
000000d0: 53ee bdbe 73df 9bbe 4a71 273f f33e 16bd
000000e0: e796 ce3e f6e1 14bf 1524 b33e f706 ad3c
000000f0: 19df 5cbb bb9b 92bd 237b 353f 6b0a 963e
00000100: af56 6ebf 0f25 6a3f 3f87 1a3c 9329 953d
00000110: dfa8 87be fb18 18be 009c 3c3e f6bc 44bb
00000120: fc26 02bd f2dd d9bd 6c85 e9bd f086 603f
00000130: b838 adbc 035d 353f 9f72 0a3d 0bf4 88be
00000140: 9417 63bd 40f6 133f 2c43 b73e d8d6 95be
00000150: 7171 ed3e be05 02bf fdbf 4abe 837e 44bd
00000160: ea4d 143c ccd8 fabc 4911 a5bd e252 2a3e
00000170: 616e bb3d d2e6 3b3e 044d 07be fdea ddbe
00000180: 5be7 3e3f 599f a33f 8daf 2abe 20c6 b1bd
00000190: 2f51 8f3d 4038 1fbf a258 5d3d 569a 3fbe
000001a0: 4014 9bbc 08c9 033b ec36 19bc d668 12bf
000001b0: fb4b fa3e cd3e c8be f7e8 c83c 6283 2bbd
000001c0: f0bd 023d 6822 083f 733f 82bd e542 1bbf
000001d0: a4f7 1c3d c11a f1bc e1d7 debd 455b 6c3f
000001e0: 48ba 94be e067 033f 1df6 40bf 6682 2ebf
000001f0: 8a40 6d3e b598 e6be f4bd 7fbe 11f0 f23e
00000200: b4c3 5e3f 06ad e73e aa34 503e feb7 c9bd
00000210: 7b8d 20bd 9db8 0bbb 7e1e 22be 1580 d6bd
00000220: 46a9 923c aac1 ac3d c815 6fbe 8d78 29be
00000230: f2e0 93be 1347 c93f 1ddc 17be 6bf2 103d
00000240: f6c3 2d3f 953a a3be e46e 383f 82dc dfbd
00000250: 46a8 92bd 703b 13bd d8f4 08bf 2663 7cbe
00000260: 83e0 5d3e 8335 193d 6b13 633e 2692 c4bc
00000270: 2014 933b 4a1b 4c3e 9968 223d 013a bfbe
00000280: fbd4 debd 98c8 643d 25d8 f73d c325 0abe
00000290: 4e0d f53d f229 ff3e 8431 e2be 9f0e 0dbe
000002a0: a924 a4bd 9499 c33c 0be8 013d 80b3 a8bd
000002b0: 6c38 9d3e be30 0b3e 6d35 d03d 56dd bf3d
000002c0: 9836 08bc b52c 91bd 74d4 67bc 191b 213e
000002d0: 7548 533c f234 f33d 5232 d4bd 6c93 223f
000002e0: 85b5 c4bd 9c96 fa3e 6177 283d 6100 dc3d
000002f0: be21 9c3f 058c 7dbf 8060 943f 3365 ccbd
00000300: 1627 b93e b041 493d e806 02bf b505 4e3f
00000310: f505 da3e c234 353e cbf4 033e 6f9f 22bd
00000320: 1d9c 3c3e 8a20 ec3d 8644 293c d7a4 663d
00000330: 790a 483c 9511 b6bc 0348 163e ffc6 9dbe
00000340: 08c4 f8bd 2391 99be 32aa 30bd 20a2 783c
00000350: 46dd 513e 828f afbd c9e0 47bd fda8 e6bd
00000360: d483 fdbe 0004 0f3e b22a 943d b466 b33e
00000370: ca71 cd3d b7ca edbd 2559 dc3d e0e7 e43c
00000380: 66fa 16be d86e 11be 005f b63d eddb 12be
00000390: cd80 07be 3524 b83c bafe 933d 6cda 933d
000003a0: 1dc6 8c3d 4715 863d e3c5 8c3d 42b3 e8bd
000003b0: 66f9 eabd dd09 9cbd 5b36 bdbc 1087 abbc
000003c0: 8e96 0bbe 836d 19bc 8306 babd 6032 7d3c
000003d0: 8c12 b23d 5a53 92bd 1add be3d 7012 c7bd
000003e0: ac48 03be 955f 853d 3060 f0bd 2d8a 6dbd
000003f0: 896b 893d d4ba 873c 420c d93d 205b d03c

fc1.bias f4 [8]
0.45528007 1.0155377 1.328323 0.9357093 0.5078642 -0.15194593 0.13160625 1.2053066
00000000: 781a e93e 24fd 813f 7d06 aa3f a58a 6f3f
00000010: 6303 023f b797 1bbe cac3 063e 7d47 9a3f

fc2.weight f4 [8, 8]
-0.2799381 0.17785086 -0.15583827 0.07890897 0.121253945 0.19883202 0.095863976 -0.2296907
0.6352804 1.2229623 -0.17843062 -0.80421567 0.403795 -0.31402695 -0.17707604 2.3533003
0.34424108 0.009991349 -0.29055166 -0.221733 -0.06625693 0.24509004 -0.03677368 -0.03891541
-0.4016046 0.122553945 0.6973904 1.7076336 1.4638351 -0.32355642 0.6824292 -0.6498017
0.44076675 0.841341 -0.8586122 0.11131579 0.42782652 -0.25839752 0.31821305 0.30460575
-0.62548816 0.8504125 0.23437254 0.7169521 1.5708417 0.1751637 0.07441381 -0.27201745
-0.5805388 -1.0995568 2.6896572 1.2520565 -0.31207034 0.13323876 -0.20395854 0.1453404
1.1387044 1.9329525 1.0865947 0.50257474 -1.3434598 -0.21131963 -0.35199815 -0.108575225
00000000: 0c54 8fbe 891e 363e 1194 1fbe 079b a13d
00000010: fd53 f83d 9f9a 4b3e 5554 c43d 0a34 6bbe
00000020: bca1 223f 078a 9c3f 84b6 36be 14e1 4dbf
00000030: 38be ce3e 24c8 a0be 6c53 35be 799c 1640
00000040: 5e40 b03e c1b2 233c 30c3 94be fa0d 63be
00000050: b7b1 87bd e2f8 7a3e 00a0 16bd c465 1fbd
00000060: 1e9f cdbe 90fd fa3d 2d88 323f bd93 da3f
00000070: f35e bb3f 30a9 a5be aeb3 2e3f 6759 26bf
00000080: 2eac e13e 2062 573f 02ce 5bbf 88f9 e33d
00000090: 140c db3e ae4c 84be d2ec a23e 49f5 9b3e
000000a0: fe1f 20bf a2b4 593f 5bff 6f3e 2c8a 373f
000000b0: 5711 c93f 1d5e 333e 4566 983d df45 8bbe
000000c0: 319e 14bf 47be 8cbf 5823 2c40 6343 a03f
000000d0: afc7 9fbe be6f 083e 82da 50be 1dd4 143e
000000e0: 11c1 913f fd6a f73f 8915 8b3f bda8 003f
000000f0: 7ef6 abbf 2c64 58be 1a39 b4be b05c debd

fc2.bias f4 [8]
-0.22553638 1.0380496 -0.30252835 0.262405 0.76205796 -0.45650938 1.4053601 -0.66492635
00000000: 02f3 66be cfde 843f ffe4 9abe f359 863e
00000010: 3b16 433f 99bb e9be d7e2 b33f 9d38 2abf

fc3.weight f4 [13, 8]
0.171736 0.62337285 0.33336845 0.04258007 0.5480465 1.1063362 -1.030598 -1.0035883
0.26428485 0.29611358 0.06105265 -0.75391364 -0.9320472 -0.7041059 1.2431356 -0.36530218
-0.27650306 -1.2653313 -0.34311774 1.5475855 0.09556359 0.84134454 0.26681945 -0.7899427
-0.12705241 -0.27165794 -0.2658608 1.2096301 0.14665928 0.9666739 -0.48163536 0.013992657
-0.2996834 -1.6902449 -0.018792272 0.58462185 -0.39442503 -0.5875594 1.2429256 0.3276315
-0.24951357 0.4267604 0.22340044 -0.15832531 0.40808812 -0.08941028 -0.1738839 0.61146814
0.31143388 0.99965036 0.021502357 -0.8339685 -0.44690087 -0.6194741 -0.23610489 0.601377
0.02009028 0.42832094 0.059618723 -0.63098687 0.48568696 -0.029126786 -1.8531668 1.2853657
0.24915409 0.26568162 0.15795335 0.11434493 0.18166015 -0.5909064 0.6698398 -0.13543728
-0.25323176 -0.77461016 -0.2784854 -0.29567894 -0.4579669 0.2208605 0.7694363 1.3781562
0.2100054 1.1656836 0.16621509 -0.54409665 0.48552606 -0.6191435 -1.5352389 -0.54721385
0.11443327 0.84615195 0.15078792 -0.56110877 0.52954155 0.057822254 0.3135876 -0.9505314
0.32696825 -0.4669321 0.06524059 0.560583 -0.28296283 0.002476296 1.1894283 -1.2990968
00000000: 90db 2f3e 5d95 1f3f 45af aa3e 7168 2e3d
00000010: c74c 0c3f 6d9c 8d3f a3ea 83bf 9575 80bf
00000020: 5850 873e 339c 973e 5812 7a3d 7c00 41bf
00000030: a59a 6ebf 4940 34bf 111f 9f3f e308 bbbe
00000040: cf91 8dbe 60f6 a1bf 21ad afbe 4817 c63f
00000050: d8b6 c33d 5b62 573f 8f9c 883e af39 4abf
00000060: 071a 02be c016 8bbe e81e 88be 29d5 9a3f
00000070: da2d 163e f177 773f e998 f6be 7541 653c
00000080: 1a70 99be f259 d8bf 40f2 99bc c7a9 153f
00000090: 14f2 c9be 4b6a 16bf 3018 9f3f 51bf a73e
000000a0: 7c80 7fbe 5780 da3e 16c3 643e 0820 22be
000000b0: edf0 d03e bd1c b7bd 9f0e 32be 2d89 1c3f
000000c0: 4374 9f3e 16e9 7f3f b625 b03c f67e 55bf
000000d0: 31d0 e4be db95 1ebf 7bc5 71be d8f3 193f
000000e0: 5f94 a43c e24c db3e c332 743d 5b88 21bf
000000f0: f6ab f83e 4c9b eebc 9234 edbf dd86 a43f
00000100: 4022 7f3e 6c07 883e 86be 213e ad2d ea3d
00000110: 1e05 3a3e a445 17bf 9f7a 2b3f 12b0 0abe
00000120: 98a7 81be da4c 46bf a395 8ebe 3b63 97be
00000130: a37a eabe 4129 623e c7f9 443f 6c67 b03f
00000140: a80b 573e 1f35 953f 4a34 2a3e eb49 0bbf
00000150: df96 f83e 3080 1ebf b582 c4bf 3516 0cbf
00000160: fe5b ea3d 6a9d 583f 2668 1a3e d3a4 0fbf
00000170: 0990 073f 07d7 6c3d 8e8e a03e 0756 73bf
00000180: 6268 a73e b911 efbe dc9c 853d 5e82 0f3f
00000190: 81e0 90be 5a49 223b 303f 983f ce48 a6bf

fc3.bias f4 [13]
0.050013825 0.20615382 -1.0529556 0.33798498 -0.10781285 0.22010641 -0.8286643 -0.84879136
0.47382227 -0.25877082 0.32828674 0.44971618 0.13314357
00000000: 4cdb 4c3d fd19 533e 40c7 86bf 5e0c ad3e
00000010: fccc dcbd 9363 613e 5823 54bf 644a 59bf
00000020: d598 f23e 9c7d 84be 3315 a83e 3341 e63e
00000030: ca56 083e
