model_ml/model/model.pth (torch, 3700 bytes, 6 tensors)

fc1.weight f4 [8, 23]
-0.04826752 0.04099648 0.17180312 0.014072661 -0.19888629 -0.06247099 0.22690059 0.22884408
0.3850941 0.40746358 -0.1639396 -0.088031895 -0.15004031 0.036483336 -0.13329583 -0.08145755
-0.64426243 0.1707971 0.5960021 0.12234719 0.09279337 -0.095408276 0.10850589 0.011761665
-0.01993806 -0.0887886 -0.18835856 0.07033728 -0.20221558 -0.17695247 0.22500469 0.40103093
-0.1718284 0.4981852 -0.192802 0.06340464 -0.13261138 0.059090056 -0.061898243 -0.16128452
0.13921256 0.062218502 -0.12752958 -0.037364498 0.018305182 0.03933323 -0.10229821 -0.12679474
-0.18057376 0.17619069 -0.15940812 -0.03652166 -0.07284632 0.10849003 0.10860389 -0.15427008
0.051197633 0.110495314 -0.060276598 0.1179726 0.055907056 -0.0453057 0.008650079 -0.04900606
0.03487946 -0.16899204 -0.07006605 0.12440099 -0.09531493 0.025337161 -0.028178036 -0.11631934
0.07936089 -0.30190948 -0.09571295 -1.0307955 1.079021 -0.4830964 -0.30280733 -0.52951944
0.28454113 -0.16874468 0.12512797 -0.023638513 0.95219356 -0.6439323 0.94807404 0.15473446
0.20775169 0.09060183 0.6475975 -0.14056842 0.15944533 0.6722646 0.08576537 0.17684035
0.14434628 0.8184687 1.0428495 -0.37994635 0.5456804 1.4928185 0.24668674 -0.25245127
-0.09384555 0.34294522 -0.10243562 -0.036214918 0.040519625 -0.5938896 -0.074309595 0.21522368
0.34641165 -0.57001626 0.1524585 0.00021286945 0.44285253 -0.080538474 -0.18429786 -0.47054762
-0.74184453 -0.3200616 -0.17149965 0.43875474 -0.025939064 -0.05315569 1.3016918 0.14959729
-0.18642499 0.0036274218 0.61528546 0.92012864 -0.1920606 0.43141574 0.023123285 -0.21840304
-0.14427389 -0.13922349 0.12673746 0.2202599 0.3301896 0.19088429 -0.2879858 -0.29367
1.1950706 -0.19041121 1.5975423 -0.9278656 1.598095 0.37431186 0.049957536 0.12820143
-0.10046041 0.013029188 -0.18926744 -0.29404065 -0.13824208 -0.02967886 0.020904373 -0.45404163
0.0797875 -0.01283695 1.6117045e-05 0.073057115 -0.19952042 -0.13328545 0.55685204 -0.5188604
0.10676882 -0.5834778 0.14826563 -0.51567894 0.12686867 -0.08694138 0.23893459 -0.16122496
0.35082123 0.58902574 0.06202836 -0.83919644 0.09862302 0.21309534 0.33603412 -0.123277865
00000000: 2ab4 45bd edeb 273d 28ed 2f3e 0591 663c
00000010: d9a8 4bbe 95e1 7fbd a158 683e 1a56 6a3e
00000020: 0e2b c53e 119f d03e c8df 27be 114a b4bd
00000030: 2ba4 19be 8d6f 153d b47e 08be 37d3 a6bd
00000040: 62ee 24bf 6fe5 2e3e 9893 183f 2a91 fa3d
00000050: 730a be3d 6a65 c3bd 5638 de3d 00b4 403c
00000060: 2455 a3bc ccd6 b5bd 11e1 40be fe0c 903d
00000070: 9a11 4fbe 0733 35be a167 663e ed53 cd3e
00000080: c9f3 2fbe 2112 ff3e e36d 45be 4bda 813d
00000090: 47cb 07be 6a08 723d 0389 7dbd c527 25be
000000a0: bd8d 0e3e d4d8 7e3d 1d97 02be 840b 19bd
000000b0: c0f4 953c e21b 213d b981 d1bd 7bd6 01be
000000c0: 54e8 38be 556b 343e e23b 23be bc97 15bd
000000d0: 7430 95bd 0530 de3d b76b de3d faf8 1dbe
000000e0: 9cb4 513d 5e4b e23d 98e4 76bd 9e9b f13d
000000f0: ccfe 643d 7892 39bd 10b9 0d3c 94ba 48bd
00000100: c4dd 0e3d 400c 2dbe ca7e 8fbd f2c5 fe3d
00000110: 7934 c3bd e18f cf3c a0d5 e6bc d638 eebd
00000120: f687 a23d e193 9abe 2705 c4bd 1bf1 83bf
00000130: 5c1d 8a3f 6958 f7be 9009 9bbe 968e 07bf
00000140: 60af 913e 68cb 2cbe 8c21 003e 8ea5 c1bc
00000150: f5c2 733f bfd8 24bf fbb4 723f b672 1e3e
00000160: dcbc 543e 748d b93d f3c8 253f 2bf1 0fbe
00000170: a345 233e 8819 2c3f c1a5 af3d a315 353e
00000180: 83cf 133e 2a87 513f 187c 853f 5488 c2be
00000190: b6b1 0b3f ad14 bf3f 739b 7c3e 4b41 81be
000001a0: 1932 c0bd 8496 af3e c4c9 d1bd 1856 14bd
000001b0: e8f7 253d 2609 18bf a12f 98bd 9963 5c3e
000001c0: de5c b13e 96ec 11bf 151e 1c3e b535 5f39
000001d0: 91bd e23e 5bf1 a4bd 94b8 3cbe 9eeb f0be
000001e0: 86e9 3dbf 1ddf a3be 9b9d 2fbe 76a4 e03e
000001f0: 297e d4bc c8b9 59bd d69d a63f 0830 193e
00000200: 31e6 3ebe 0aba 6d3b 5983 1d3f 8d8d 6b3f
00000210: 89ab 44be 86e2 dc3e 0b6d bd3c 0ca5 5fbe
00000220: 89bc 13be 9a90 0ebe 77c7 013e d08b 613e
00000230: 9c0e a93e 2c77 433e e072 93be ea5b 96be
00000240: 13f8 983f 28fb 42be 447c cc3f 9a88 6dbf
00000250: 618e cc3f cea5 bf3e 46a0 4c3d 3c47 033e
00000260: 30be cdbd 6078 553c 53cf 41be 7f8c 96be
00000270: 558f 0dbe 1521 f3bc a63f ab3c 2578 e8be
00000280: a167 a33d 1252 52bc 1733 8737 f89e 953d
00000290: 154f 4cbe fb7b 08be db8d 0e3f 09d4 04bf
000002a0: 9ca9 da3d cd5e 15bf f2d2 173e 8903 04bf
000002b0: dce9 013e 520e b2bd 45ab 743e 2818 25be
000002c0: d79e b33e 64ca 163f 7311 7e3d 94d5 56bf
000002d0: defa c93d aa35 5a3e aa0c ac3e 1b79 fcbd

fc1.bias f4 [8]
0.23679432 -0.065354444 -0.21731383 1.3606704 0.8228058 0.98794967 0.51220423 0.6909464
00000000: 367a 723e 8dd8 85bd 8487 5ebe 732a ae3f
00000010: 67a3 523f 45ea 7c3f d11f 033f dde1 303f

fc2.weight f4 [8, 8]
0.6915748 0.18967915 -0.1536307 0.8969653 -0.22207229 0.9097545 2.0050557 -0.8125648
-0.023021603 0.042725336 0.110723674 -0.19162263 0.080107324 -0.13846809 0.09817497 -0.2178646
0.42605242 0.53916055 -0.240996 -0.5911122 2.3261952 -0.78648823 0.21022306 -0.03172625
-0.057067174 -0.4732202 -0.18950376 2.0098803 -0.20826435 0.8098666 -1.0696095 1.0471365
-0.49220043 0.13432482 -0.012088169 -0.9652918 0.6693762 1.8475474 0.9214809 0.008062439
0.16790976 0.2796837 -0.17379758 0.1702475 -0.1688717 -0.21941337 0.0830846 -0.13702583
-0.26486015 -0.3584138 0.24347247 -1.063272 0.43848413 -0.24094284 1.4628012 -0.18428735
0.6919503 0.033188608 -0.2706961 -0.48643824 0.6394467 0.26688904 0.4249561 -1.2444639
00000000: 0c0b 313f 403b 423e 5e51 1dbe 859f 653f
00000010: eb66 63be ace5 683f d552 0040 3f04 50bf
00000020: cd97 bcbc c300 2f3d 18c3 e23d b938 44be
00000030: 4f0f a43d 94ca 0dbe f50f c93d e617 5fbe
00000040: 8b23 da3e 6d06 0a3f a8c7 76be 2153 17bf
00000050: 62e0 1440 4b57 49bf b744 573e 62f3 01bd
00000060: 45bf 69bd eb49 f2be 460d 42be e1a1 0040
00000070: 4043 55be 6b53 4f3f f7e8 88bf 9208 863f
00000080: b201 fcbe 728c 093e 750d 46bc 5d1d 77bf
00000090: 3d5c 2b3f 6f7c ec3f 2ce6 6b3f 5218 043c
000000a0: 89f0 2b3e b432 8f3e fef7 31be 5c55 2e3e
000000b0: b4ec 2cbe e6ad 60be 4228 aa3d 8050 0cbe
000000c0: c09b 87be 0382 b7be d950 793e 4c19 88bf
000000d0: fe80 e03e b8b9 76be 123d bb3f d3b5 3cbe
000000e0: a823 313f c7f0 073d ae98 8abe 6f0e f9be
000000f0: c7b2 233f aea5 883e d993 d93e 984a 9fbf

fc2.bias f4 [8]
0.36185735 -0.30696544 1.2226675 0.7456561 0.23768635 -0.3789197 -0.36251038 0.2221753
00000000: 5e45 b93e 932a 9dbe 5e80 9c3f 51e3 3e3f
00000010: 0d64 733e c301 c2be f69a b9be ec81 633e

fc3.weight f4 [9, 8]
-1.4065897 -0.14105594 1.4886533 -0.2467473 -0.50884235 0.16141692 -0.49111757 -0.59108883
0.75625366 0.020002415 -0.22135141 -0.97484833 0.42841667 -0.07218324 1.667995 0.39515886
1.7568741 -0.0075738174 -0.13526013 -0.99339825 0.20482135 -0.34664074 -0.56926155 -0.19116011
-0.46470517 0.31606075 1.1217092 -1.4509053 0.18299948 -0.23592135 -0.010374956 0.9128813
-0.003209129 0.33664957 0.40068555 0.98383963 -0.9102857 -0.09891781 -0.46207264 -0.428292
0.63616914 0.34470674 -1.2768892 0.4896051 0.73470527 0.2253581 -0.5266346 -0.6604404
-0.83796895 0.1833261 0.30103484 0.078799754 1.4218029 0.24430534 -0.14323567 -0.5686004
-0.29200363 -0.07603591 -1.5570204 1.5850947 -1.396671 -0.15924399 -0.43124327 0.066645116
0.3168933 0.054988436 0.4838036 0.03900964 0.17129987 -0.34014004 -0.09814663 0.89433694
00000000: 220b b4bf f870 10be 318c be3f 53ab 7cbe
00000010: 7e43 02bf 7a4a 253e c373 fbbe 9951 17bf
00000020: d799 413f 1bdc a33c f2a9 62be a98f 79bf
00000030: 6e59 db3e ced4 93bd dc80 d53f 4352 ca3e
00000040: 40e1 e03f c92d f8bb a281 0abe 594f 7ebf
00000050: b0bc 513e e57a b1be 20bb 11bf 7abf 43be
00000060: d6ed edbe b7d2 a13e 2b94 8f3f 44b7 b9bf
00000070: 3764 3b3e 5e95 71be b8fb 29bc 97b2 693f
00000080: 4050 52bb 555d ac3e a826 cd3e eadc 7b3f
00000090: 7c08 69bf 6c95 cabd c994 ecbe 1749 dbbe
000000a0: fbdb 223f 677d b03e 1b71 a3bf 85ad fa3e
000000b0: a515 3c3f 46c4 663e 86d1 06bf 9f12 29bf
000000c0: 2285 56bf d6b9 3b3e 3d21 9a3e c461 a13d
000000d0: a3fd b53f 2e2b 7a3e 5fac 12be cc8f 11bf
000000e0: 8081 95be b7b8 9bbd 724c c7bf 62e4 ca3f
000000f0: 1ec6 b2bf db10 23be ebcb dcbe 3c7d 883d
00000100: d73f a23e 8e3b 613d 1bb5 f73e 93c8 1f3d
00000110: 3c69 2f3e d626 aebe 1a01 c9bd 44f3 643f

fc3.bias f4 [9]
0.23670158 -0.5362756 0.39888397 -0.19272989 -0.36600313 -0.34584895 -0.16151975 0.55885464
-0.11680853
00000000: e661 723e 5c49 09bf 853a cc3e fc5a 45be
00000010: c364 bbbe 1d13 b1be 6f65 25be 1911 0f3f
00000020: 5039 efbd
